model.tflite (tflite, 722988 bytes, 17 tensors)

model_1/conv2d_10/Conv2D f4 [1, 3, 3, 1]
0.13941449 0.4671805 -0.08398488 0.3078711 -0.013625264 0.19276524 0.24917656 0.39805746
0.0245319
00000000: acc2 0e3e 4832 ef3e 4400 acbd 48a1 9d3e
00000010: 803c 5fbc 4064 453e 2428 7f3e 30ce cb3e
00000020: 20f7 c83c

model_1/conv2d_9/Conv2D f4 [1, 3, 3, 256]
0.03835981 0.030872438 -0.039238166 -0.021065053 -0.010166433 0.032299917 -0.03875951 0.040039737
0.011215325 -0.042635135 -0.04766549 -0.00843114 0.025627356 -0.008541483 0.043958392 0.018296052
-0.02598814 0.009165712 -0.038473506 -0.026876792 -0.047113456 0.041173015 0.018573057 -0.034998804
-0.012885239 -0.047541853 0.038155068 -0.009046879 0.021679055 0.046628427 0.04542725 0.022992205
-0.009316005 0.019592028 -0.042956308 -0.0019764267 -0.025556441 -0.009807214 -0.01297937 0.029338468
0.023698796 0.011309471 -0.006745234 0.03345028 -0.038533162 -0.01940715 0.046209287 -0.041518107
0.043397028 0.026708756 0.029534724 0.031595122 0.024847541 0.025448512 -0.004155051 0.001373779
-0.0056191236 -0.027943559 0.045665886 0.046062585 -0.03913632 0.022064302 0.025393393 -0.03650877
-0.019632027 0.048033025 0.01925001 0.026137013 0.045288187 0.03546008 -0.04530248 -0.02714429
0.015681054 0.013158623 -0.046142027 0.03043392 -0.04884377 0.023113709 -0.025299555 0.037959475
0.027074296 -0.0049308687 0.028375853 0.014747966 -0.025450917 -0.0022154376 -0.013830926 -0.011318721
-0.0091937 -0.048247933 -0.014608335 -0.009698633 -0.040310383 0.033041295 0.01555917 -0.014346071
0.03764077 0.024794903 0.03725904 -0.04477179 -0.047410525 0.010174129 0.035024796 -0.030347107
0.032684486 -0.01880534 -0.0076046847 -0.035201255 0.024364281 0.021189872 -0.044124298 -0.013159499
0.005571477 -0.022167375 0.013431434 -0.04293462 0.013382945 0.015811231 -0.0055723153 0.03727151
-0.0048163123 0.02323487 -0.022912838 -0.0032920316 0.0028332174 -0.050403837 0.0047532544 0.019231815
0.0041467175 -0.0065404437 0.019998033 0.04286826 0.037310015 -0.049208876 0.014436442 0.017510828
0.030217808 0.02667148 0.038294967 0.03968763 0.024811607 0.048205893 0.027749669 -0.0465205
-0.02811429 -0.0034515895 -0.0385991 -0.01678317 0.016213093 -0.010006495 -0.035596002 0.010840494
0.038962726 0.025704492 0.030382637 -0.002424918 0.029736895 -0.0055527166 -0.04936937 0.024460811
0.0049110875 -0.03081142 0.014660191 -0.015637763 -0.0016267076 -0.042440787 -0.018888995 -0.019794028
-0.025719121 -0.050331086 -0.011491541 0.020930704 -0.017300975 0.009999633 -0.03779999 -0.028153585
0.03240041 0.033616293 -0.018343601 0.046147916 0.03749499 -0.0128427595 0.035309095 -0.03973371
-0.014204044 -0.0063180067 0.02749439 -0.009370502 0.011086207 0.008284099 0.0068519227 -0.017718878
-0.0079130195 -0.042722274 -0.008782659 -0.043017495 0.031445567 -0.022235898 0.0012586899 0.050258424
0.047713336 0.04256038 -0.011573337 0.036274906 0.02222779 -0.013230052 0.015927885 -0.0030845292
0.04411744 -0.0016690381 0.028105233 -0.017598066 -0.025445696 0.0023291223 -0.017840635 0.0018996
-0.0028519072 0.0032276958 0.020455275 -0.029699529 0.020647611 0.025393363 -0.034413196 0.050349135
-0.0068040825 -0.017566383 0.029532913 -0.00918277 -0.019703744 -0.028437914 0.030026156 0.03781716
0.004305549 0.018278938 0.031231608 -0.035043444 -0.00094981864 0.03727783 -0.025900029 0.009649124
0.05034006 0.04400212 -0.0030567832 0.028089095 0.013352755 -0.020928929 -0.010435242 0.0101925135
-0.005811181 -0.050045885 -0.022513077 -0.032780234 0.041499224 0.031392965 -0.045111686 0.030194763
00000000: 2d1f 1d3d 32e8 fc3c 33b8 20bd 9e90 acbc
00000010: 1c91 26bc eb4c 043d 4bc2 1ebd b500 243d
00000020: 7cc0 373c 2ea2 2ebd e43c 43bd c422 0abc
00000030: 76f0 d13c 94f1 0bbc b70d 343d 9ae1 953c
00000040: 14e5 d4bc c82b 163c 6596 1dbd b82c dcbc
00000050: 0afa 40bd 09a5 283d 8626 983c e85a 0fbd
00000060: 9c1c 53bc 3fbb 42bd 7d48 1c3d 5c39 14bc
00000070: 4698 b13c 73fd 3e3d ed11 3a3d 265a bc3c
00000080: 28a2 18bc 767f a03c f4f2 2fbd f086 01bb
00000090: be5b d1bc 70ae 20bc 6ca7 54bc 3a57 f03c
000000a0: fa23 c23c 5c4b 393c 2007 ddbb 2903 093d
000000b0: f3d4 1dbd befb 9ebc f345 3d3d e40e 2abd
000000c0: 15c1 313d 52cc da3c cef2 f13c e369 013d
000000d0: 128d cb3c 6679 d03c 1827 88bb 6010 b43a
000000e0: a020 b8bb e4e9 e4bc 270c 3b3d 1fac 3c3d
000000f0: 684d 20bd 32c0 b43c ce05 d03c 388a 15bd
00000100: 58d3 a0bc 47be 443d 32b2 9d3c 4a1d d63c
00000110: 1b80 393d 973e 113d 188f 39bd b45d debc
00000120: 8e75 803c 4497 573c 6cff 3cbd 8e50 f93c
00000130: 6810 48bd f658 bd3c 0341 cfbc 657b 1b3d
00000140: eaca dd3c 2093 a1bb 7a74 e83c 74a1 713c
00000150: 717e d0bc e030 11bb 1c9b 62bc 2872 39bc
00000160: 2ca1 16bc a09f 45bd cc57 6fbc 04e7 1ebc
00000170: 801c 25bd 4f56 073d e4eb 7e3c c80b 6bbc
00000180: 352d 1a3d ae1e cb3c ef9c 183d a062 37bd
00000190: 8a31 42bd 64b1 263c 2976 0f3d 7f9a f8bc
000001a0: 2be0 053d a80d 9abc b830 f9bb 312f 10bd
000001b0: 9a97 c73c 6296 ad3c aebb 34bd f09a 57bc
000001c0: f090 b63b 5b98 b5bc 840f 5c3c 36dc 2fbd
000001d0: 2444 5b3c 8e86 813c f897 b6bb 03aa 183d
000001e0: 28d2 9dbb 0e57 be3c b4b3 bbbc 20bf 57bb
000001f0: 80ad 393b 4174 4ebd 30c1 9b3b 0a8c 9d3c
00000200: 30e1 873b 3851 d6bb ead2 a33c a196 2f3d
00000210: 63d2 183d 3f8f 49bd d486 6c3c de72 8f3c
00000220: 568b f73c 267e da3c 2fdb 1c3d 7f8f 223d
00000230: b641 cb3c 8b73 453d 4653 e33c 488c 3ebd
00000240: f14f e6bc 1034 62bb 171a 1ebd dc7c 89bc
00000250: 52d1 843c 48f2 23bc 1dcd 11bd 549c 313c
00000260: 6197 1f3d 3a92 d23c 02e5 f83c 60eb 1ebb
00000270: ca9a f33c 90f3 b5bb 8937 4abd 0a62 c83c
00000280: 30ed a03b 3b68 fcbc 4c31 703c c41a 80bc
00000290: 4037 d5ba 64d6 2dbd 18bd 9abc 1627 a2bc
000002a0: e8b0 d2bc f827 4ebd 0447 3cbc de76 ab3c
000002b0: c6ba 8dbc 80d5 233c 2ad4 1abd 59a2 e6bc
000002c0: 4bb6 043d 3db1 093d 5245 96bc 9905 3d3d
000002d0: 5994 193d 706a 52bc 45a0 103d d1bf 22bd
000002e0: 14b8 68bc 4807 cfbb ea3b e13c bc86 19bc
000002f0: eca2 353c 08ba 073c 1886 e03b 2e27 91bc
00000300: 9ca5 01bc 8dfd 2ebd 24e5 0fbc 1d33 30bd
00000310: 11cd 003d 0f28 b6bc a0fa a43a c7db 4d3d
00000320: 0f6f 433d cb53 2e3d 189e 3dbc ff94 143d
00000330: 0e17 b63c dcc2 58bc 327b 823c d025 4abb
00000340: 7db4 343d a0c3 daba f23c e63c d229 90bc
00000350: 7e73 d0bc 30a4 183b 8626 92bc 00fc f83a
00000360: 10e7 3abb c087 533b d291 a73c 6d4c f3bc
00000370: 2e25 a93c be05 d03c daf4 0cbd e53a 4e3d
00000380: c8f4 debb 60e7 8fbc 02ef f13c 5473 16bc
00000390: bf69 a1bc a1f6 e8bc 6af9 f53c 2be6 1a3d
000003a0: 9015 8d3b b6bd 953c 6ed9 ff3c b789 0fbd
000003b0: 40fd 78ba a3b0 183d 4c2c d4bc 5c17 1e3c
000003c0: 6131 4e3d 913b 343d 5054 48bb 1a1b e63c
000003d0: 84c5 5a3c 2573 abbc 94f8 2abc 80fe 263c
000003e0: b86b bebb eafc 4cbd 586d b8bc 9144 06bd
000003f0: 17fb 293d e995 003d 08c7 38bd 025b f73c

model_1/conv2d_8/Conv2D f4 [256, 1, 1, 128]
0.07373148 -0.018377483 0.052045137 0.02392289 -0.07761374 -0.10929206 0.06334731 -0.11294174
0.011636913 -0.0846217 -0.035685807 -0.116288245 0.0007984936 -0.052993774 0.0809643 -0.09971133
-0.030415595 -0.023450583 -0.054451108 -0.09796417 -0.06738445 -0.06088981 0.0375233 -0.055279285
-0.060021102 -0.11058593 0.03450367 0.10774717 0.07916877 -0.047647953 0.038071394 0.033241153
0.07992914 -0.015179396 0.08548045 -0.07832995 0.10832447 0.09197876 0.058187187 0.09943041
0.09380531 0.019492775 -0.04372689 -0.01592344 -0.0039607286 -0.09333822 -0.030268282 0.10354981
-0.0772579 0.021391332 -0.08023158 -0.10214016 0.11989531 -0.11823991 0.09206417 -0.10901755
0.0077631176 -0.0021977425 0.117471814 -0.087367594 -0.05072084 -0.019942284 -0.06705472 0.041341066
-0.0956555 -0.009695888 -0.011786759 -0.084260255 -0.016230345 0.09311387 0.060498834 0.0976516
0.1234355 0.027998447 0.03384599 0.012907088 0.0652881 -0.106009185 0.038180828 0.10881215
0.0007083416 0.04153514 -0.07309848 0.0020872653 -0.04285413 0.022918522 0.10328066 -0.03726685
-0.06431836 -0.10186362 0.07546452 -0.117237926 0.021375716 -0.011839509 -0.004941076 -0.056447208
0.075794905 -2.2858381e-05 -0.09579876 0.051281273 -0.12216547 0.086782515 -0.10278106 -0.12285578
-0.056078225 0.016982168 0.013134271 0.0995321 -0.085608125 0.075521976 -0.044391453 0.06888637
0.00013792515 0.024802774 -0.057117164 -0.071995676 0.06123346 -0.029570341 0.009829462 -0.034493208
-0.023656398 0.025071263 0.024930298 -0.030686945 0.06795463 -0.07445431 0.062277704 -0.06765798
-0.044211447 0.06801936 0.037236065 0.07178846 0.054778248 0.065371335 -0.11993107 -0.04352826
0.11403197 0.08498594 -0.035186768 -0.020890117 -0.058583498 -0.05618295 -0.043994844 -0.030689597
0.07028994 0.045957625 -0.024531007 -0.10434207 -0.033374876 0.12127006 0.09838703 -0.103188366
-0.043693274 0.024387509 0.04282117 -0.09251693 0.034493834 -0.035707027 -0.115949035 -0.09811622
0.0300951 0.044605255 -0.084567726 0.051164836 0.011659771 -0.054499745 0.047011912 -0.055550575
0.010999203 -0.012922466 0.042659074 -0.00614202 -0.06300986 0.029010534 0.1131528 -0.026713938
-0.07793948 -0.0170241 0.043491453 -0.063842595 -0.036847502 0.07439336 -0.09524059 0.051720977
0.065238 0.10766941 0.09749174 0.10805574 0.027262479 -0.03939694 0.030120075 -0.0059590936
-0.11191645 -0.08653861 0.070456326 0.03622666 0.08975202 -0.111682326 -0.02813217 0.11690009
-0.028964847 -0.114382595 -0.0008403361 -0.10906461 -0.08781108 -0.012165368 0.11628705 0.005862236
-0.011340499 -0.016710967 0.067510694 0.07099381 -0.009517759 -0.015283376 0.11780819 0.013997495
0.1128439 0.115817666 0.012030423 0.08290148 0.04865542 -0.03958851 -0.070982456 0.07302868
0.12195787 -0.036418676 -0.101508975 0.09702623 0.106429756 0.013289273 -0.002480507 0.046920806
0.06150955 -0.12424317 0.07884243 -0.00023168325 0.10945806 0.07769665 0.011654705 -0.044862032
-0.06958613 -0.07583153 -0.07806215 0.00054457784 0.09217009 -0.108036995 0.058988333 0.07958916
-0.06774816 -0.02029118 -0.015134752 -0.008187145 -0.017657518 0.08311564 -0.10899204 -0.11218399
00000000: 8800 973d 608c 96bc 482d 553d f0f9 c33c
00000010: f4f3 9ebd 84d4 dfbd 3cbc 813d 004e e7bd
00000020: c0a8 3e3c 244e adbd 482b 12bd 8828 eebd
00000030: 0052 513a 0010 59bd 9cd0 a53d 7435 ccbd
00000040: 202a f9bc 701b c0bc 2008 5fbd 70a1 c8bd
00000050: dc00 8abd 9867 79bd 08b2 193d 886c 62bd
00000060: b0d8 75bd e07a e2bd b853 0d3d 8caa dc3d
00000070: 3c23 a23d 802a 43bd c0f0 1b3d e027 083d
00000080: e4b1 a33d 00b3 78bc 6010 af3d 746b a0bd
00000090: 38d9 dd3d 5c5f bc3d b055 6e3d 2ca2 cb3d
000000a0: 001d c03d 50af 9f3c f81a 33bd e071 82bc
000000b0: 00c9 81bb 1c28 bfbd 30f5 f7bc ec11 d43d
000000c0: 6439 9ebd e03c af3c 7450 a4bd dc2e d1bd
000000d0: ac8b f53d c427 f2bd 248c bc3d 9844 dfbd
000000e0: c061 fe3b 0008 10bb 1095 f03d c8ed b2bd
000000f0: a8c0 4fbd 005e a3bc fc53 89bd 4055 293d
00000100: 08e7 c3bd 80db 1ebc 401d 41bc a490 acbd
00000110: 80f5 84bc 7cb2 be3d a0cd 773d 90fd c73d
00000120: c0cb fc3d 005d e53c 18a2 0a3d 4078 533c
00000130: c4b5 853d 581b d9bd 8063 1c3d e8d8 de3d
00000140: 00b0 393a c020 2a3d a8b4 95bd 80ca 083b
00000150: d087 2fbd a0bf bb3c d084 d33d 20a5 18bd
00000160: 58b9 83bd e09d d0bd 248d 9a3d 701a f0bd
00000170: 201c af3c 80fa 41bc c0e8 a1bb 3035 67bd
00000180: 5c3a 9b3d 00c0 bfb7 2432 c4bd 500c 523d
00000190: e431 fabd 08bb b13d e07e d2bd d09b fbbd
000001a0: 48b2 65bd 301e 8b3c 2031 573c 7cd7 cb3d
000001b0: 5053 afbd 44ab 9a3d d0d3 35bd 4c14 8d3d
000001c0: 00a0 1039 302f cb3c b0f3 69bd 7872 93bd
000001d0: f0cf 7a3d 803d f2bc c00b 213c c048 0dbd
000001e0: 10cb c1bc 4062 cd3c a03a cc3c 3063 fbbc
000001f0: cc2b 8b3d 807b 98bd e816 7f3d 4490 8abd
00000200: 1017 35bd bc4d 8b3d d884 183d d405 933d
00000210: 285f 603d 68e1 853d 6c9e f5bd b04a 32bd
00000220: 9889 e93d 1c0d ae3d 0020 10bd c021 abbc
00000230: 40f5 6fbd 1820 66bd f033 34bd c068 fbbc
00000240: 2cf4 8f3d 103e 3c3d 40f5 c8bc 4cb1 d5bd
00000250: 18b4 08bd 705c f83d 247f c93d 6c54 d3bd
00000260: b8f7 32bd 50c8 c73c 4065 2f3d 8479 bdbd
00000270: 6849 0d3d 8841 12bd b076 edbd 28f1 c8bd
00000280: 008a f63c 00b4 363d d831 adbd 3892 513d
00000290: a008 3f3c 203b 5fbd 908f 403d 0089 63bd
000002a0: 0036 343c c0b8 53bc 48bb 2e3d 0043 c9bb
000002b0: 500b 81bd 80a7 ed3c a8bc e73d 30d7 dabc
000002c0: bc9e 9fbd 2076 8bbc 1824 323d e8bf 82bd
000002d0: 68ed 16bd 8c5b 983d 800d c3bd 60d9 533d
000002e0: 809b 853d c881 dc3d c0a9 c73d 544c dd3d
000002f0: 9055 df3c b05e 21bd 60be f63c 8044 c3bb
00000300: 7434 e5bd 283b b1bd 684b 903d 6862 143d
00000310: e8cf b73d b4b9 e4bd 7075 e6bc 5069 ef3d
00000320: b047 edbc 6c41 eabd 004a 5cba 445d dfbd
00000330: 4cd6 b3bd 4051 47bc e827 ee3d 0018 c03b
00000340: 80cd 39bc 70e5 88bc 0c43 8a3d 3465 913d
00000350: 60f0 1bbc 2067 7abc 6c45 f13d c055 653c
00000360: b41a e73d d031 ed3d 401b 453c 40c8 a93d
00000370: e84a 473d 9027 22bd 405f 91bd 1090 953d
00000380: 0cc5 f93d c02b 15bd f0e3 cfbd b0b5 c63d
00000390: d8f7 d93d 40bb 593c 0090 22bb 0830 403d
000003a0: 70f1 7b3d 3473 febd 2478 a13d 00f0 72b9
000003b0: 8c2b e03d 6c1f 9f3d 60f3 3e3c 40c1 37bd
000003c0: 2c83 8ebd 904d 9bbd 0cdf 9fbd 00c2 0e3a
000003d0: acc3 bc3d 8042 ddbd c09d 713d a4ff a23d
000003e0: 8cbf 8abd b039 a6bc c0f7 77bc 6023 06bc
000003f0: 80a6 90bc 8838 aa3d 3837 dfbd b8c0 e5bd

model_1/conv2d_7/Conv2D f4 [128, 1, 1, 128]
0.08849166 -0.13285147 0.1428882 -0.0881963 -0.006404847 -0.029964581 0.14316438 0.058287963
0.13670804 -0.055655316 -0.113097206 0.12173109 -0.12883508 0.05328557 -0.013806224 -0.10098179
0.1112784 -0.119354956 -0.01222685 -0.12999949 -0.13510042 -0.10252013 -0.019465685 0.0032021254
-0.1374417 0.13512976 -0.026886374 0.09274073 0.13984154 -0.01095365 0.07974726 0.06310932
-0.0037020445 0.012411937 -0.0010658056 0.069113106 0.05777076 0.06708117 0.044784233 -0.10700889
-0.056842707 -0.056245014 -0.0067614466 -0.1461134 0.041845962 0.08881141 -0.0582883 -0.13448186
0.046602592 0.08538473 -0.007114634 0.13422824 0.084782764 -0.08481806 -0.0059935153 -0.04959923
0.14159776 0.1114362 -0.0027224123 0.15009178 0.06060858 -0.072859995 -0.0043285936 -0.14848164
-0.0061611384 -0.11433135 -0.014885828 -0.0946935 -0.07838737 0.035217226 0.045375124 -0.11338115
-0.13238113 0.012111798 -0.1356326 -0.09061766 0.10198809 0.08651547 0.12778904 -0.107501574
0.12079172 -0.015161842 0.063972145 0.14268146 0.14084478 -0.0058544874 -0.00041343272 0.1418659
-0.08498943 -0.030315384 0.06776358 0.0059244335 -0.13331962 -0.12132527 -0.038176917 0.124858454
0.11912663 0.065497786 0.08171353 -0.0072072595 0.059229597 0.00310646 -0.08702143 0.03927861
0.034024686 0.08761515 0.15302454 -0.14075297 0.051446915 0.06606588 0.1520649 0.030381814
0.15108986 -0.0575649 0.058997452 0.12914304 0.030594975 0.043394342 0.14142467 -0.04817663
0.14207853 -0.06500817 0.1491762 -0.1048142 0.074720785 0.0033066273 0.035822317 -0.088532254
-0.02091439 0.14088003 -0.13021316 -0.101266965 0.10753371 -0.10118513 0.04753506 0.093593225
0.06840539 0.035774186 0.11297624 -0.024062857 0.022488564 0.031085804 0.029879317 -0.04223337
0.029155046 -0.074565545 -0.1163857 -0.083795324 -0.046009324 -0.116993174 -0.12378809 0.05322425
-0.07508742 0.09724139 -0.05536171 0.02134709 -0.11380312 0.060276642 0.14343815 -0.07993721
0.1181352 0.12405689 -0.107961 -0.14104047 0.02788268 -0.09787646 0.06685658 0.13949032
-0.1223218 0.05266832 -0.0043553114 0.056335494 0.13256802 0.037781984 -0.14483275 -0.0010850132
-0.122706406 0.06534569 -0.0877095 0.0046928376 0.1361909 0.1435733 -0.10126835 0.09195265
0.053249255 -0.13950801 0.060560003 0.06650129 -0.075283505 -0.036321573 -0.0913004 0.018036231
0.03316927 0.058409736 0.122212544 0.00033390522 -0.13746367 -0.06792929 -0.13109884 0.06969465
0.00048848987 0.10971306 0.11279367 0.05422078 0.084952936 -0.15308067 -0.014125735 0.032993257
-0.05077976 -0.08026389 -0.12345145 0.12498902 0.1469552 -0.057129815 -0.098793894 0.14809258
0.14459316 0.13817297 -0.12270404 -0.03012821 -0.020274684 0.046885327 0.042412847 -0.122512445
-0.13257906 -0.09344329 0.11617194 0.05414073 -0.122444846 -0.123089075 -0.10127905 -0.009408638
-0.063855566 -0.015911266 -0.081441894 0.10432325 0.13144483 0.148879 -0.00063849986 0.10015641
0.09864591 0.13349198 0.08373667 -0.09747003 0.089980215 0.08097762 0.06687355 0.12869824
-0.012856483 0.15245648 0.1145923 -0.10110067 0.10802142 -0.029838003 0.016814128 -0.012495607
00000000: 1e3b b53d 370a 08be 4951 123e 43a0 b4bd
00000010: c0df d1bb 4878 f5bc af99 123e 5cbf 6e3d
00000020: 31fd 0b3e d4f6 63bd 829f e7bd 264e f93d
00000030: 58ed 03be f841 5a3d 8033 62bc 8acf cebd
00000040: eee5 e33d 5f70 f4bd 2053 48bc 961e 05be
00000050: c457 0abe 13f6 d1bd 8076 9fbc c0da 513b
00000060: 84bd 0cbe 755f 0a3e d040 dcbc daee bd3d
00000070: 9f32 0f3e f076 33bc 8852 a33d 763f 813d
00000080: 009e 72bb 705b 4b3c 80b2 8bba 2c8b 8d3d
00000090: 08a1 6c3d da61 893d ac6f 373d 7a27 dbbd
000000a0: e6d3 68bd 2c61 66bd 208f ddbb c09e 15be
000000b0: ac66 2b3d c2e2 b53d b6bf 6ebd 9db5 09be
000000c0: 5ce2 3e3d 30de ae3d e021 e9bb 2173 093e
000000d0: 96a2 ad3d 17b5 adbd 4065 c4bb 9028 4bbd
000000e0: 01ff 103e aa38 e43d 806a 32bb a9b1 193e
000000f0: b440 783d 9f37 95bd e0d6 8dbb 920b 18be
00000100: 60e3 c9bb 8e26 eabd b0e3 73bc aaee c1bd
00000110: 8f89 a0bd f03f 103d 44db 393d 6034 e8bd
00000120: eb8e 07be 9070 463c 46e3 0abe c095 b9bd
00000130: 22df d03d 062f b13d 21db 023e c929 dcbd
00000140: a661 f73d 6069 78bc d403 833d 171b 123e
00000150: 9d39 103e 00d7 bfbb 00c2 d8b9 4b45 113e
00000160: f00e aebd f857 f8bc a2c7 8a3d c021 c23b
00000170: f084 08be 6279 f8bd 665f 1cbd cab5 ff3d
00000180: aaf8 f33d b423 863d 6c59 a73d e02a ecbb
00000190: bc9a 723d c095 4b3b 4b38 b2bd 9ce2 203d
000001a0: 785d 0b3d 926f b33d 77b2 1c3e 8c21 10be
000001b0: 00ba 523d 8c4d 873d e7b6 1b3e 48e3 f83c
000001c0: 4db7 1a3e 2cc9 6bbd 50a7 713d 133e 043e
000001d0: 50a2 fa3c 44be 313d a1d1 103e dc54 45bd
000001e0: 097d 113e 0123 85bd a5c1 183e d4a8 d6bd
000001f0: 3607 993d 00b4 583b 6cba 123d 6650 b5bd
00000200: a854 abbc db42 103e 9956 05be 0e65 cfbd
00000210: a23a dc3d 263a cfbd 20b4 423d cead bf3d
00000220: 2018 8c3d f487 123d 1660 e73d 781f c5bc
00000230: f039 b83c a8a7 fe3c 78c5 f43c e6fc 2cbd
00000240: 90d6 ee3c d2b5 98bd a05b eebd e29c abbd
00000250: 4674 3cbd 1e9a efbd 9c84 fdbd ac01 5a3d
00000260: 6fc7 99bd 7e26 c73d f6c2 62bd 18e0 ae3c
00000270: 9c11 e9bd a4e4 763d 73e1 123e 1fb6 a3bd
00000280: def0 f13d 8a11 fe3d a81a ddbd ea6c 10be
00000290: 386a e43c 7473 c8bd 1aec 883d 8dd6 0e3e
000002a0: da83 fabd bcba 573d 00b7 8ebb 0cc0 663d
000002b0: e9bf 073e 48c1 1a3d 094f 14be 0037 8eba
000002c0: 7f4d fbbd f6d3 853d 0aa1 b3bd 60c6 993b
000002d0: a175 0b3e e104 133e c865 cfbd ac51 bc3d
000002e0: e41b 5a3d 30db 0ebe c40d 783d d431 883d
000002f0: 3d2e 9abd eec5 14bd b4fb babd b8c0 933c
00000300: 80dc 073d 0c3f 6f3d 924a fa3d 0010 af39
00000310: 47c3 0cbe 831e 8bbd c63e 06be 12bc 8e3d
00000320: 000e 003a 3eb1 e03d 5e00 e73d 9c16 5e3d
00000330: cefb ad3d 2ec1 1cbe a06f 67bc f023 073d
00000340: 70fe 4fbd 6561 a4bd 1dd4 fcbd 3efa ff3d
00000350: 6d7b 163e f400 6abd 7454 cabd 95a5 173e
00000360: 3b10 143e 377d 0d3e 414c fbbd 70cf f6bc
00000370: 1817 a6bc d40a 403d 18b9 2d3d cee7 fabd
00000380: cec2 07be 325f bfbd 8eeb ed3d acc2 5d3d
00000390: 5dc4 fabd 2016 fcbd 646b cfbd b026 1abc
000003a0: b5c6 82bd 5858 82bc 02cb a6bd 6ea7 d53d
000003b0: 7999 063e bd73 183e 0061 27ba ce1e cd3d
000003c0: de06 ca3d 1fb2 083e 227e ab3d 5e9e c7bd
000003d0: 8c47 b83d 98d7 a53d 00f5 883d 79c9 033e
000003e0: 00a4 52bc 8d1d 1c3e 5eaf ea3d de0d cfbd
000003f0: 563a dd3d d46e f4bc c8bd 893c 60ba 4cbc

model_1/conv2d_6/Conv2D f4 [128, 1, 1, 96]
0.07820144 -0.05155988 0.0012677759 -0.013842061 0.111320704 -0.11128306 0.021039724 -0.15586254
-0.08537086 0.1591349 0.001779139 0.15101278 -0.10242012 0.053117216 0.049186975 -0.13178891
-0.09186112 0.0753583 -0.12448858 -0.06985362 0.111766785 0.0015204251 0.11979067 0.019631863
-0.04118759 -0.12845176 0.102635175 0.13730755 0.10967043 -0.104503185 0.12624961 -0.022676945
-0.08443496 -0.07311759 0.09202665 0.090239555 -0.07175239 0.045155182 0.07171138 -0.037948593
0.014981881 -0.16323303 -0.05606775 0.037297383 0.09667039 -0.065189004 -0.098515116 0.041073933
-0.14448923 -0.045741156 0.060702518 0.025216892 -0.059101194 0.10447496 0.013304278 0.051075205
-0.044413015 0.074560255 0.06325956 0.03503415 -0.15957502 0.10547203 0.06718248 -0.13314444
-0.035146102 0.047775283 -0.021314308 0.0933308 -0.03196329 0.03526996 -0.08049596 0.14886987
-0.14344956 -0.05923453 -0.050272286 0.06300023 0.039140433 0.13451946 0.019512385 -0.14024232
-0.056202404 -0.10250366 0.1183635 0.020583332 0.11390051 0.07648963 0.117643744 -0.12281956
0.087040514 -0.12002854 0.050316915 0.073794514 0.053907767 0.0929462 0.009301454 -0.12755257
-0.14135027 0.038774848 -0.11742651 -0.15170269 0.102829486 0.10582754 0.0017949045 -0.08048909
0.13710132 0.15609053 -0.133732 -0.049522817 -0.028746605 -0.021552175 -0.02320519 0.072476566
0.0511733 0.098248124 0.16101721 0.06414002 0.029099539 0.081243634 -0.1622476 0.12877738
-0.1568249 0.14887527 -0.082038164 -0.14809424 0.0077857077 0.00022144616 0.15097961 0.12310359
-0.04739055 0.092632085 0.048212975 0.0073467195 -0.13660336 -0.08725359 0.010704577 0.044121653
-0.09185835 0.07724853 -0.023009896 0.062650025 0.078741685 0.09258896 0.044449538 -0.019522056
0.05049205 -0.0015944839 -0.15412585 0.08251776 -0.06621278 -0.1118638 0.051882267 0.028852
-0.082721256 0.100155234 -0.030656695 -0.14392847 0.101552665 0.11241776 0.09882158 0.07471666
0.06486642 0.0034827292 0.12098634 -0.066363245 0.050588965 -0.09738801 0.15426394 0.03667125
0.014737651 -0.015086412 0.056143403 -0.13561231 0.018279105 -0.09461815 -0.014769927 -0.14573768
-0.0015127063 -0.09162915 0.124951005 0.019846752 -0.011094287 0.09279376 -0.0157011 -0.086032175
-0.033272102 0.09922302 -0.12680116 -0.054634176 0.15348363 0.051577 0.07934041 -0.10286042
-0.10375832 0.091181785 0.009368211 -0.102339774 0.010494307 -0.030824319 -0.1006054 -0.010942444
0.09854996 -0.11800323 -0.00040230155 0.15276158 -0.13671859 -0.13685897 -0.07284866 -0.031625286
0.1632376 0.12631914 0.065919966 0.05788161 0.1253905 0.08059062 0.050841868 -0.058065824
0.02445373 0.116609156 -0.11368808 -0.12603506 0.09485841 0.02346921 0.08771357 -0.03202389
0.13681886 -0.010233834 0.09651613 0.06758006 0.12087563 -0.059763998 0.16260469 -0.015199378
-0.050931573 -0.10610025 0.053961083 0.07427557 -0.095524356 -0.07009515 -0.13656309 0.109312296
-0.14150338 0.05306451 -0.04883372 -0.13497245 0.017700791 0.1142095 -0.06327368 -0.13225245
0.06949228 -0.13470775 -0.032473207 0.14663202 -0.14567903 -0.110866904 0.035376906 -0.054267116
00000000: 1428 a03d 7430 53bd 802b a63a d0c9 62bc
00000010: 1cfc e33d 5fe8 e3bd 805b ac3c 6e9a 1fbe
00000020: ebd6 aebd 42f4 223e 0032 e93a 18a3 1a3e
00000030: a4c1 d1bd 7091 593d 4878 493d acf3 06be
00000040: af21 bcbd 7455 9a3d def3 febd 6a0f 8fbd
00000050: fce5 e43d 0049 c73a d054 f53d 00d3 a03c
00000060: 52b4 28bd dc88 03be 6432 d23d 5a9a 0c3e
00000070: e49a e03d c405 d6bd 9447 013e 00c5 b9bc
00000080: 3cec acbd adbe 95bd 7878 bc3d 84cf b83d
00000090: ebf2 92bd a4f4 383d 6add 923d fc6f 1bbd
000000a0: 9076 753c 8f26 27be 4ca7 65bd 24c5 183d
000000b0: 20fb c53d d081 85bd 4bc2 c9bd 243d 283d
000000c0: fcf4 13be 145b 3bbd 34a3 783d a893 ce3c
000000d0: 1814 72bd f8f6 d53d 30fa 593c 3c34 513d
000000e0: 6cea 35bd 0cb3 983d 3a8e 813d f87f 0f3d
000000f0: a267 23be b801 d83d f896 893d 0457 08be
00000100: 5cf5 0fbd 04b0 433d 589b aebc 3824 bf3d
00000110: f0eb 02bd 3c77 103d 11db a4bd 5871 183e
00000120: 71e4 12be e89f 72bd 50ea 4dbd 4406 813d
00000130: b851 203d 78bf 093e 70d8 9f3c af9b 0fbe
00000140: 7e34 66bd 70ed d1bd 9068 f23d 609e a83c
00000150: ac44 e93d 98a6 9c3d 34ef f03d d288 fbbd
00000160: 4c42 b23d 86d1 f5bd 1c19 4e3d 9421 973d
00000170: 64ce 5c3d 945a be3d 2065 183c 249d 02be
00000180: 20be 10be 60d2 1e3d 4f7d f0bd f357 1bbe
00000190: 4498 d23d 1cbc d83d 0043 eb3a 77d7 a4bd
000001a0: 4a64 0c3e 32d6 1f3e 0bf1 08be 70d8 4abd
000001b0: 007e ebbc 308e b0bc d018 bebc 986e 943d
000001c0: 189b 513d 5036 c93d b2e1 243e d85b 833d
000001d0: 2862 ee3c 1063 a63d 3c24 26be 38de 033e
000001e0: b596 20be c272 183e a003 a8bd 04a6 17be
000001f0: 401f ff3b 0034 6839 669a 1a3e bc1d fc3d
00000200: 981c 42bd e4b5 bd3d f87a 453d c0bc f03b
00000210: c0e1 0bbe 03b2 b2bd 4062 2f3c e8b8 343d
00000220: 3b20 bcbd 7a34 9e3d 407f bcbc a84e 803d
00000230: 5243 a13d 489f bd3d b810 363d b8ec 9fbc
00000240: c0d0 4e3d 00fe d0ba 2bd3 1dbe 12ff a83d
00000250: 919a 87bd d918 e5bd 8082 543d 085b ec3c
00000260: c369 a9bd 301e cd3d c023 fbbc fc61 13be
00000270: d8fa cf3d 483b e63d f862 ca3d 0c05 993d
00000280: b0d8 843d 803e 643b b0c7 f73d 74e9 87bd
00000290: 6036 4f3d 5d73 c7bd 5ef7 1d3e 9834 163d
000002a0: 3076 713c 002d 77bc a0f6 653d f4dd 0abe
000002b0: 10be 953c 29c7 c1bd 90fd 71bc 423c 15be
000002c0: 0046 c6ba 10a8 bbbd 50e6 ff3d a895 a23c
000002d0: d0c4 35bc a80a be3d 989f 80bc a331 b0bd
000002e0: 5448 08bd 7035 cb3d 2ad8 01be 16c8 5fbd
000002f0: d02a 1d3e 6842 533d 3a7d a23d 7ca8 d2bd
00000300: 3e7f d4bd 84bd ba3d 207d 193c 8497 d1bd
00000310: 50f0 2b3c 4883 fcbc 340a cebd f047 33bc
00000320: 90d4 c93d adab f1bd 00ec d2b9 886d 1c3e
00000330: f5ff 0bbe c224 0cbe ae31 95bd 8489 01bd
00000340: c227 273e ce59 013e 0c01 873d 4415 6d3d
00000350: 5e66 003e b20c a53d 903f 503d 6ed6 6dbd
00000360: 3053 c83c c8d0 ee3d 4cd5 e8bd 560f 01be
00000370: 2045 c23d 8042 c03c 2ca3 b33d 7c2b 03bd
00000380: 3e1a 0c3e d0ab 27bc 40aa c53d 6a67 8a3d
00000390: a48d f73d 18cb 74bd d881 263e d006 79bc
000003a0: a09d 50bd 164b d9bd 4c06 5d3d ca1d 983d
000003b0: 46a2 c3bd 0c8e 8fbd 32d7 0bbe 20df df3d
000003c0: 43e6 10be 2c5a 593d de05 48bd 3836 0abe
000003d0: 4001 913c ace6 e93d a295 81bd 306d 07be
000003e0: f851 8e3d d4f0 09be a002 05bd b426 163e
000003f0: e22c 15be 300e e3bd 60e7 103d 3247 5ebd

model_1/conv2d_5/Conv2D f4 [32, 5, 5, 96]
-0.01827462 -0.039417382 0.030710869 -0.041825797 -0.004492495 -0.028608987 0.017451026 -0.01839069
-0.007985905 -0.0019265302 -0.026285177 0.0067152046 0.012974925 0.027971096 -0.012909936 0.0057882927
-0.027417174 -0.031820223 0.031321667 0.03410978 0.03075634 -0.024105888 -0.0027168803 -0.03437876
0.04211855 -0.000817243 -0.0053962655 -0.02882268 0.035308927 0.019035991 0.037924565 0.04250481
-0.014764156 0.0051508658 -0.0038558356 0.018766683 0.015480816 0.021591686 -0.015988408 0.030166782
-0.017964792 0.030243933 0.03623595 0.004941333 -0.0029778779 -0.01858097 0.018752996 -0.012804974
0.039628565 -0.012311969 -0.0110439025 0.031763658 -0.0024071224 -0.0088350065 -0.019092267 0.013514746
-0.0035685636 0.007898904 0.00011467561 0.018782798 0.011820957 -0.0075386018 -0.0069317184 -0.0119112395
0.03169968 -0.017558672 -0.02131734 0.01850763 0.03609535 0.014651947 0.018174458 0.01588038
-0.0040855296 0.032487914 0.0059472695 0.0010752156 0.039989933 -0.028980915 -0.015992785 -0.03852687
0.01322604 0.006101638 0.017505784 -0.03720503 0.03340324 -0.03494568 -0.029633172 -0.0031076483
-0.04099126 0.040663354 -0.039647326 -0.042218104 -0.027463157 -0.007250227 -0.039229613 0.03741789
0.024814844 0.016823266 -0.0057609417 -0.015998555 -0.0365168 0.019887306 -0.00841463 0.013153225
0.03096319 -0.017220382 -0.022370845 0.014669001 0.02655796 -0.04177857 0.032930017 -0.03278158
0.017706137 0.032305837 -0.03178757 -0.025037006 -0.002372034 -0.040460598 -0.0060451366 0.034922324
-0.0065518618 -0.014692819 -0.0315632 -0.039331704 0.03401564 -0.026754703 -0.006602984 0.0064805336
0.0019933656 -0.03687123 -0.0321476 -0.015557563 0.015800536 -0.032356847 -0.041551143 -0.022309853
0.036645487 0.018355072 0.026818477 0.005163379 -0.039644796 -0.036657434 0.011127051 0.011526708
-0.031182695 -0.0034732446 0.021049798 -0.030283006 -0.003431961 -0.010661282 -0.01000867 0.013006639
0.01520361 0.029764824 0.0069890656 0.025861569 0.0009090528 0.035268776 0.027266249 -0.03533529
-0.0058094338 0.0057649575 0.011564832 -0.026960675 0.021268748 0.01662359 -0.012456832 -0.014246613
0.026643649 0.04077982 -0.038225364 0.037834734 0.02876383 0.0012436286 0.023015775 -0.02291649
0.028897144 0.013571154 0.017193198 0.022101052 -0.0012730099 0.025395915 -0.009239361 -0.010697827
0.03869363 0.038507484 0.03191553 -0.011164434 -0.024621606 0.0040343553 0.041269593 0.021374866
-0.025093641 -0.010764707 -0.021537032 0.03898882 -0.03104921 -0.01716841 -0.014611695 -0.010082744
0.014518119 -0.030001 -0.0076420084 -0.029135771 0.019117374 -0.019939987 -0.00434665 -0.02775919
0.035737045 -0.03093606 0.035297938 0.026348628 -0.03148097 0.006038334 0.02677308 0.013759162
0.029090494 0.034370117 0.013340149 -0.0030255206 -0.0011656322 -0.043271556 -0.013808966 -0.0008069612
-5.5026263e-05 0.035429224 0.0054230765 0.010810297 0.0023201033 0.02196104 -0.007912368 -0.008607399
-0.0031480566 -0.0073818676 0.036050484 -0.027852602 0.0329234 0.020389117 -0.033337362 0.02928941
0.0068304203 0.0010228418 0.023178592 0.0028045513 -0.0075337626 -0.026656441 -0.0013050139 0.014597788
0.038670458 -0.04183567 -0.03309016 0.021997608 0.03376855 0.014776319 0.0299614 0.021260984
00000000: a8b4 95bc 1f74 21bd 5c95 fb3c 8751 2bbd
00000010: c835 93bb 655d eabc 74f5 8e3c 13a8 96bc
00000020: 50d7 02bc a083 fcba 0354 d7bc 380b dc3b
00000030: c894 543c a423 e53c 3284 53bc b8ab bd3b
00000040: fb99 e0bc ec55 02bd 264b 003d b2b6 0b3d
00000050: b8f4 fb3c b679 c5bc b00d 32bb bed0 0cbd
00000060: 8084 2c3d 403c 56ba 28d3 b0bb 8a1d ecbc
00000070: 18a0 103d 5ef1 9b3c ca56 1b3d 8619 2e3d
00000080: 5ce5 71bc 98c8 a83b 30b2 7cbb 96bc 993c
00000090: 40a3 7d3c 0ce1 b03c 1ffa 82bc 5420 f73c
000000a0: e62a 93bc 20c2 f73c 266c 143d e8ea a13b
000000b0: 8028 43bb 1e37 98bc e29f 993c f4cb 51bc
000000c0: 9051 223d 24b8 49bc 7cf1 34bc 9c1a 023d
000000d0: d0c0 1dbb b4c0 10bc 6367 9cbc f46c 5d3c
000000e0: 90de 69bb 686a 013c 007e f038 62de 993c
000000f0: b0ac 413c 6006 f7bb 7823 e3bb 5c27 43bc
00000100: 86d7 013d 34d7 8fbc b4a1 aebc 509d 973c
00000110: b8d8 133d b80e 703c 9ae2 943c 9217 823c
00000120: e8df 85bb 0c12 053d 50e1 c23b 40ee 8c3a
00000130: 7ccc 233d 6269 edbc 4d03 83bc 5ace 1dbd
00000140: 08b2 583c 40f0 c73b 4a68 8f3c 4d64 18bd
00000150: d6d1 083d 3423 0fbd 44c1 f2bc b0a9 4bbb
00000160: 74e6 27bd 9e8e 263d 3c65 22bd e4ec 2cbd
00000170: 6afa e0bc 5093 edbb 3baf 20bd 8043 193d
00000180: 8048 cb3c f2d0 893c 48c6 bcbb 670f 83bc
00000190: a492 15bd b4ea a23c 84dd 09bc a080 573c
000001a0: 84a6 fd3c c211 8dbc 1043 b7bc 4056 703c
000001b0: 1490 d93c 0120 2bbd a0e1 063d fa45 06bd
000001c0: 760c 913c 2053 043d af33 02bd 681a cdbc
000001d0: 2074 1bbb 03ba 25bd 4816 c6bb b60a 0f3d
000001e0: 00b1 d6bb 26ba 70bc 6a48 01bd 481a 21bd
000001f0: fc53 0b3d ae2c dbbc d85d d8bb a85a d43b
00000200: 20a3 023b 4906 17bd 34ad 03bd 26e5 7ebc
00000210: 2070 813c 9d88 04bd 8831 2abd 27c3 b6bc
00000220: 9419 163d 605d 963c 6cb2 db3c 9031 a93b
00000230: 9562 22bd 1b26 16bd 3c4e 363c 84da 3c3c
00000240: da72 ffbc 609f 63bb a070 ac3c 1114 f8bc
00000250: c0ea 60bb a8ac 2ebc 68fb 23bc cc19 553c
00000260: 9018 793c 5cd5 f33c 8804 e53b a4db d33c
00000270: 804d 6e3a fe75 103d 785d df3c bdbb 10bd
00000280: 105d bebb f8e7 bc3b 6c7a 3d3c a2dc dcbc
00000290: cc3b ae3c 322e 883c be17 4cbc a06a 69bc
000002a0: c843 da3c be08 273d 3392 1cbd 98f8 1a3d
000002b0: 20a2 eb3c 4001 a33a 948b bc3c 5dbb bbbc
000002c0: b4b9 ec3c 8c59 5e3c c0d8 8c3c 440d b53c
000002d0: 20db a6ba 180b d03c b060 17bc f045 2fbc
000002e0: 367d 1e3d 06ba 1d3d dcb9 023d 08eb 36bc
000002f0: 40b3 c9bc a032 843b 4e0a 293d 581a af3c
00000300: 2e91 cdbc 745e 30bc 6e6e b0bc beb2 1f3d
00000310: ea5a febc c4a4 8cbc e465 6fbc 1832 25bc
00000320: 68dd 6d3c a8c4 f5bc d069 fabb 24ae eebc
00000330: 0a9c 9c3c 2f59 a3bc 586e 8ebb 3e67 e3bc
00000340: 0261 123d 9f6d fdbc 9294 103d 14d9 d73c
00000350: 31f2 00bd 38dd c53b 3853 db3c 1c6e 613c
00000360: 304f ee3c aec7 0c3d a490 5a3c d047 46bb
00000370: 20c8 98ba 843d 31bd 003f 62bc 408a 53ba
00000380: 00cc 66b8 3c1e 113d 10b4 b13b ac1d 313c
00000390: e00c 183b a4e7 b33c e0a2 01bc 0c06 0dbc
000003a0: a04f 4ebb 98e3 f1bb aca9 133d 242b e4bc
000003b0: b0da 063d 1407 a73c c28c 08bd 58f0 ef3c
000003c0: b8d1 df3b e010 863a 08e1 bd3c 90cc 373b
000003d0: c8dd f6bb 9c5e dabc 000d abba 902b 6f3c
000003e0: ea64 1e3d e15b 2bbd 8c89 07bd 5434 b43c
000003f0: e450 0a3d 6018 723c 9c71 f53c 842b ae3c

model_1/conv2d_4/Conv2D f4 [32, 3, 3, 96]
-0.063423745 0.056287706 0.03488683 -0.05373896 -0.021430682 -0.05592393 0.047554247 -0.016571447
0.048907652 -0.058740944 -0.0069813877 -0.044089265 0.063329354 -0.008334979 -0.03121984 0.004397139
0.0031002983 0.051514953 -0.018832311 0.003319919 -0.034879413 0.020029686 0.035999373 0.06867081
0.030946963 0.051297292 0.020747468 -0.0688622 0.07055111 0.03224577 -0.016294613 0.016857415
0.042006396 0.060654595 -0.042336863 -0.030853823 -0.011672497 -0.06802573 -0.07046907 0.047863416
-0.0051589385 0.03374143 0.0031465963 -0.0133810565 0.05558385 -0.03297494 -0.037170786 0.026753493
-0.050162114 -0.053925395 -0.0003138408 0.037564963 0.061785147 0.005319901 0.0476408 -0.024268925
0.07045716 0.06494984 0.01060541 -0.001055561 0.058407724 -0.014263846 -0.06893111 0.06258765
0.043621212 0.06751378 -0.0011420548 -0.0075931028 -0.050219964 0.039338514 0.016082697 -0.032575373
0.009275697 0.014807813 -0.021429166 0.042406343 -0.029525768 -0.05947242 0.032901004 0.023741998
0.038676567 -0.0054300725 0.024625733 -0.046801522 -0.066982575 0.00907962 -0.016960017 0.0013978258
-0.057104874 0.031755403 0.024485849 0.037118115 -0.028792534 -0.032192 -0.021759082 -0.04342687
-0.056291476 0.025124855 0.021434039 -0.061004803 0.003938541 -0.034173604 0.0057675615 0.04943023
0.06986411 -0.000598751 -0.018416349 0.005046651 -0.04104819 0.03416507 -0.0666977 0.03990808
-0.06911131 0.03612651 0.032893278 -0.05863834 0.015481889 0.055838168 -0.018877015 0.0069150403
0.0454368 -0.018542644 0.027841315 0.021742895 0.040451407 -0.02508948 0.008132473 -0.060017776
0.07104558 0.038397975 -0.0031355321 0.062411577 0.03101173 0.043148436 0.0061437413 -0.03563625
-0.02019449 -0.021340504 0.006729841 0.010232963 0.044225745 -0.046044633 0.0066509396 -0.047998138
0.052339137 0.002747655 0.025994986 -0.010610897 0.027550936 0.05461754 0.03095933 0.058307752
0.037362777 0.061980605 0.03771662 0.06681903 0.030766673 -0.056702226 -0.028986692 0.026463807
-0.03490808 0.019466989 0.04245206 -0.051624022 -0.003958568 0.023924336 -0.014235731 0.0068960786
0.06240365 -0.019722003 -0.0035975128 0.037265748 0.034382455 -0.030255284 0.059446156 -0.028830338
0.04062462 -0.024170198 -0.044770774 0.03403475 -0.0057010055 0.041315116 0.05368091 -0.019466091
0.013548903 -0.06610842 -0.044189524 -0.0077489763 -0.056531575 0.05829504 0.0052349344 -0.026654694
-0.002869472 0.05696091 0.020704508 -0.044612527 0.028435878 0.031998202 -0.0073660314 0.05661799
-0.054551497 0.0662625 -0.058995664 0.06792174 -0.031645264 -0.040717535 0.009404302 -0.06237849
0.048152275 -0.0028087199 0.013522081 -0.041197352 -0.008247137 0.033486605 0.002465278 0.020019382
-0.060080167 -0.001195088 -0.0020460933 0.06102279 -0.066957146 -0.05209279 0.04868579 0.031839438
0.012122393 0.024529152 -0.028617803 0.06678885 -0.041010283 0.061871722 0.01483126 -0.035438567
-0.00012525916 0.060936004 -0.014584333 0.052822925 -0.030280713 0.01589322 0.02962333 0.01277978
-0.03594581 -0.032665398 0.026885517 -0.051470578 0.010270312 0.046039127 -0.048520405 0.0071216673
-0.056539197 -0.06835212 -0.029698174 0.023946613 0.019055068 -0.06701943 -0.011034794 0.021896735
00000000: 4fe4 81bd f08d 663d 7ee5 0e3d 621d 5cbd
00000010: 668f afbc 7e10 65bd 3ec8 423d d8c0 87bc
00000020: 6453 483d 589a 70bd 20c4 e4bb f296 34bd
00000030: d2b2 813d 708f 08bc c0c0 ffbc e015 903b
00000040: 602e 4b3b 5801 533d 3846 9abc 0093 593b
00000050: b7dd 0ebd 4c15 a43c 1474 133d 48a3 8c3d
00000060: 7c84 fd3c 1c1d 523d 98f6 a93c a007 8dbd
00000070: 1a7d 903d 2414 043d 487c 85bc 9018 8a3c
00000080: e60e 2c3d f470 783d 6b69 2dbd 28c1 fcbc
00000090: 003e 3fbc 1351 8bbd 1652 90bd 6e0c 443d
000000a0: 500c a9bb 7434 0a3d 2037 4e3b 383c 5bbc
000000b0: e4ab 633d bb10 07bd 6540 18bd 242a db3c
000000c0: ca76 4dbd e0e0 5cbd 008b a4b9 b8dd 193d
000000d0: 6c12 7d3d 9052 ae3b 0023 433d a0cf c6bc
000000e0: d84b 903d 6c04 853d 50c2 2d3c c05a 8aba
000000f0: f03c 6f3d e8b2 69bc c12b 8dbd f42d 803d
00000100: 28ac 323d aa44 8a3d 00b1 95ba 90cf f8bb
00000110: 73b3 4dbd 6c21 213d dcbf 833c c16d 05bd
00000120: 18f9 173c 789c 723c 388c afbc 46b2 2d3d
00000130: 06e0 f1bc 5a99 73bd 34c3 063d 947e c23c
00000140: 526b 1e3d c0ee b1bb e8bb c93c f4b2 3fbd
00000150: 292e 89bd b0c2 143c bcef 8abc 4037 b73a
00000160: cde6 69bd f411 023d 8c96 c83c 2a09 183d
00000170: 52de ebbc c2db 03bd 1a40 b2bc 60e0 31bd
00000180: e491 66bd a4d2 cd3c 7096 af3c 2ce0 79bd
00000190: e00e 813b 9ff9 0bbd d0fd bc3b 5a77 4a3d
000001a0: ea14 8f3d 80f5 1cba e2dd 96bc 605e a53b
000001b0: 2622 28bd acf0 0b3d ce98 88bd a876 233d
000001c0: 3b8a 8dbd 64f9 133d 1abb 063d c22e 70bd
000001d0: c0a7 7d3c 90b6 643d f8a3 9abc 9097 e23b
000001e0: f01b 3a3d bee6 97bc 7813 e43c 281e b23c
000001f0: 60b0 253d 7488 cdbc 103e 053c 33d5 75bd
00000200: 5880 913d 3247 1d3d 807d 4dbb 48a3 7f3d
00000210: 500c fe3c 6abc 303d 7051 c93b 51f7 11bd
00000220: ea6e a5bc 48d2 aebc 0086 dc3b 28a8 273c
00000230: 0e26 353d 4c99 3cbd 20f0 d93b b299 44bd
00000240: 9061 563d 0012 343b 70f3 d43c 54d9 2dbc
00000250: 80b2 e13c a4b6 5f3d 6c9e fd3c 1cd4 6e3d
00000260: b609 193d 60df 7d3d be7c 1a3d 6ad8 883d
00000270: 640a fc3c 9840 68bd 8075 edbc a0ca d83c
00000280: c6fb 0ebd 3c79 9f3c 36e2 2d3d b673 53bd
00000290: e0b6 81bb f8fc c33c fc3c 69bc 80f8 e13b
000002a0: f89a 7f3d 0a90 a1bc 40c4 6bbb f8a3 183d
000002b0: 9ed4 0c3d eed9 f7bc d07d 733d 9a2d ecbc
000002c0: 0066 263d 9400 c6bc 8f61 37bd 0668 0b3d
000002d0: 80cf babb 0a3a 293d 84e0 5b3d 5a77 9fbc
000002e0: 38fc 5d3c da63 87bd 1300 35bd 20eb fdbb
000002f0: a78d 67bd c8c6 6e3d d089 ab3b f25a dabc
00000300: c00d 3cbb d84f 693d 809c a93c a0bb 36bd
00000310: 5cf2 e83c 8c10 033d c05e f1bb 44e8 673d
00000320: 6471 5fbd a2b4 873d 70a5 71bd 8e1a 8b3d
00000330: 779e 01bd 6ec7 26bd 8014 1a3c 9680 7fbd
00000340: 523b 453d 8012 38bb b88b 5d3c 8ebe 28bd
00000350: 001f 07bc 4029 093d 8090 213b b0ff a33c
00000360: 9f16 76bd 80a4 9cba c017 06bb 08f3 793d
00000370: d420 89bd 405f 55bd c06a 473d 126a 023d
00000380: 009d 463c 5cf1 c83c e26f eabc 98c8 883d
00000390: 66fa 27bd 346d 7d3d d0fe 723c 0828 11bd
000003a0: 0058 03b9 0898 793d 20f3 6ebc da5c 583d
000003b0: 420f f8bc 8032 823c a0ac f23c 4862 513c
000003c0: ea3b 13bd 27cc 05bd 043f dc3c d0d2 52bd
000003d0: d044 283c 8693 3c3d 55bd 46bd e05c e93b
000003e0: a595 67bd 32fc 8bbd 9649 f3bc b02b c43c
000003f0: 6019 9c3c 7c41 89bd 48cb 34bc c860 b33c

model_1/conv2d_3/Conv2D f4 [32, 1, 1, 96]
-0.06009665 0.0023873895 -0.106019974 -0.038119853 0.045353398 0.015718907 -0.12227045 0.18069275
0.21230377 -0.12437156 0.14218636 -0.032265007 0.044856057 -0.20801537 -0.077038825 0.0043035448
-0.004808381 0.14792345 -0.0200115 -0.093637526 -0.16845554 -0.07766724 -0.2154923 0.020722091
0.0039713234 -0.20508504 -0.19794601 0.054714844 0.064884946 -0.19042061 -0.032599345 -0.20793287
-0.04982671 0.12347008 -0.02366221 -0.025542796 -0.0655404 0.20508294 0.13649602 0.13047351
0.06470959 0.18160929 -0.07475762 -0.059399843 0.051352665 0.04167916 -0.10709061 0.05570753
0.057853475 -0.14135054 0.14927809 0.06632398 0.1400948 0.1398748 -0.046193346 -0.18433565
0.033434644 -0.043862283 0.04970236 0.16016276 0.05375488 -0.19852993 -0.009473354 -0.07271871
-0.18726343 -0.16187915 -0.1216613 0.01735498 -0.026457697 0.043719605 0.108767286 0.026180446
-0.013265505 0.16483708 -0.15312791 -0.054227084 -0.053300574 0.007275611 0.013321862 0.18399356
-0.12212086 0.19980611 0.20217074 0.11177297 0.07562731 0.1727549 -0.109833755 0.13355254
-0.061763585 0.084187046 -0.12825982 -0.14821857 0.06675495 -0.06482738 0.07135029 0.08839892
0.094710425 0.19789387 -0.10008295 0.070867494 0.06560032 0.19248842 0.053673312 0.15872048
-0.10373128 0.11293276 0.08924289 0.1288106 0.013059586 0.14656289 0.18654163 0.02948238
-0.11863791 -0.0707254 0.13983892 0.2159579 -0.121022664 0.18751223 -0.18424094 0.004987344
-0.012425497 0.15999196 -0.030829161 0.20071916 0.030941546 0.18503587 0.16100813 -0.14362828
-0.1471231 -0.120188445 -0.210768 -0.20087844 0.08040972 0.13188235 0.16516186 0.013029024
0.13662289 0.0747648 -0.15077764 -0.11447757 0.06705253 0.014415413 0.13481139 0.14242683
-0.13539213 -0.11776415 0.11926164 -0.19529992 -0.11844589 0.040330186 -0.06651348 -0.20915155
-0.19586535 0.0688671 0.058243677 -0.18211555 0.06174536 0.12825106 0.11508624 -0.079976365
-0.08878037 -0.09221294 0.013152614 -0.18130426 -0.1870994 -0.09337752 -0.14453456 0.10599996
0.14661305 -0.037143484 -0.042380556 0.12649657 0.032640994 0.058591947 0.09944235 0.046173677
0.092306 0.20928071 0.19159119 -0.18994154 -0.01460053 0.17289622 0.09800063 -0.1496703
-0.06536418 -0.07377325 -0.12700357 -0.00832808 0.09569232 -0.14724208 0.19581978 -0.09677793
0.058562115 -0.08924128 -0.113791905 0.055104986 -0.078946725 -0.012528539 0.03289646 0.07568656
-0.046803385 0.2055047 0.0692098 0.01220271 -0.036612213 -0.0065259486 -0.04623981 0.152249
0.07920672 -0.0671518 -0.08808032 -0.15798077 -0.021052599 0.07578437 -0.17039704 0.049239293
-0.07374774 -0.06280252 -0.15131214 0.053919032 0.11886938 0.18548901 0.06280969 0.11414079
0.15623342 -0.069080964 -0.08082926 -0.18108514 -0.048959464 -0.046927676 -0.110087976 0.05391772
0.16150682 -0.17980173 -0.15137044 0.116979495 -0.17529193 0.0856076 -0.032574356 0.11563496
0.027748585 -0.19257891 0.000577718 0.06477411 0.14850314 -0.049275577 -0.026057243 0.119625494
0.06038861 -0.027420804 -0.117255345 -0.14166722 -0.07574034 0.010548934 -0.16592966 -0.027567863
00000000: e827 76bd c075 1c3b 0021 d9bd 9023 1cbd
00000010: 7cc4 393d f0c4 803c ee68 fabd 8507 393e
00000020: 2966 593e 84b6 febd 4d99 113e 5028 04bd
00000030: fcba 373d fb01 55be 88c6 9dbd c004 8d3b
00000040: a08f 9dbb 3f79 173e 28ef a3bc 08c5 bfbd
00000050: 9c7f 2cbe 0010 9fbd 03aa 5cbe 60c1 a93c
00000060: e021 823b d001 52be 5cb2 4abe ac1c 603d
00000070: 66e2 843d 9ffd 42be e486 05bd 5bec 54be
00000080: 1817 4cbd e2dd fc3d 40d7 c1bc 203f d1bc
00000090: 0c3a 86bd 4301 523e 9dc5 0b3e d99a 053e
000000a0: 7686 843d c9f7 393e 861a 99bd 404d 73bd
000000b0: 2c57 523d c4b7 2a3d 5252 dbbd 942d 643d
000000c0: c4f7 6c3d 32be 10be 5bdc 183e ded4 873d
000000d0: 0375 0f3e 573b 0f3e 3c35 3dbd 7cc2 3cbe
000000e0: c4f2 083d f0a8 33bd b494 4b3d b501 243e
000000f0: 142e 5c3d 6e4b 4bbe 2036 1bbc 8ced 94bd
00000100: fcc1 3fbe a6c3 25be 8f29 f9bd 082c 8e3c
00000110: d0bd d8bc 5413 333d 62c1 de3d 6078 d63c
00000120: 9057 59bc 0dcb 283e 90cd 1cbe 381d 5ebd
00000130: b451 5abd 4068 ee3b f043 5a3c cf68 3c3e
00000140: 801a fabd f999 4c3e d905 4f3e 3ae9 e43d
00000150: 7ee2 9a3d a9e6 303e 85f0 e0bd ffc1 083e
00000160: d0fb 7cbd 426a ac3d 8b56 03be 9cc6 17be
00000170: d2b6 883d 38c4 84bd 1a20 923d 7e0a b53d
00000180: 8af7 c13d b1a4 4a3e 4af8 ccbd fa22 913d
00000190: 7659 863d af1b 453e 8cd8 5b3d 9f87 223e
000001a0: 1171 d4bd 4a49 e73d fac4 b63d ede6 033e
000001b0: e0f7 553c 9514 163e c504 3f3e 0885 f13c
000001c0: 6ff8 f2bd 7ad8 90bd ef31 0f3e 1124 5d3e
000001d0: bbda f7bd 3503 403e a8a9 3cbe e06c a33b
000001e0: 5094 4bbc efd4 233e 708d fcbc 5389 4d3e
000001f0: 2079 fd3c 0b7a 3d3e 51df 243e 4b13 13be
00000200: 70a7 16be 5c25 f6bd 91d3 57be 14b3 4dbe
00000210: daad a43d 2b0c 073e 3120 293e b077 553c
00000220: dfe6 0b3e 4a1e 993d 7465 1abe 3773 eabd
00000230: d652 893d a02e 6c3c ff0b 0a3e 57d8 113e
00000240: 3ca4 0abe 552e f1bd 723f f43d b4fc 47be
00000250: c293 f2bd 4431 253d 3838 88bd d32b 56be
00000260: ed90 48be 320a 8d3d ec90 6e3d 807c 3abe
00000270: b4e8 7c3d 3f54 033e 56b2 eb3d a6ca a3bd
00000280: 7cd2 b5bd 23da bcbd 107e 573c d3a7 39be
00000290: fc96 3fbe b73c bfbd de00 14be 8216 d93d
000002a0: bb21 163e c423 18bd 3c97 2dbd 5188 013e
000002b0: 90b2 053d 1cfe 6f3d 6ea8 cb3d 9c20 3d3d
000002c0: ee0a bd3d af4d 563e 7b30 443e 0980 42be
000002d0: 1037 6fbc b50b 313e 8eb4 c83d 2c43 19be
000002e0: a8dd 85bd 6e16 97bd 390d 02be 8072 08bc
000002f0: 56fa c33d a1c6 16be fb84 483e 8233 c6bd
00000300: d4de 6f3d 22c4 b6bd bb0b e9bd c4b5 613d
00000310: d2ae a1bd 8044 4dbc 70be 063d 8e01 9b3d
00000320: e8b4 3fbd d36f 523e debd 8d3d e0ed 473c
00000330: b0f6 15bd a0d7 d5bb f465 3dbd 29e7 1b3e
00000340: 2237 a23d e286 89bd 7463 b4bd b6c5 21be
00000350: 8076 acbc d634 9b3d 907c 2ebe 24af 493d
00000360: 0e09 97bd 9c9e 80bd 92f1 1abe 34da 5c3d
00000370: ca71 f33d d5f0 3d3e 5ea2 803d a6c2 e93d
00000380: a7fb 1f3e 527a 8dbd d089 a5bd 626e 39be
00000390: b889 48bd 3c37 40bd ce75 e1bd d4d8 5c3d
000003a0: 0b62 253e f21d 38be da00 1bbe f292 ef3d
000003b0: ba7f 33be 0a53 af3d b06c 05bd 06d2 ec3d
000003c0: 0051 e33c 6833 45be 0072 173a 4aa8 843d
000003d0: 3511 183e 30d5 49bd 0076 d5bc 36fe f43d
000003e0: 0c5a 773d 98a1 e0bc 9223 f0bd 3611 11be
000003f0: c01d 9bbd 70d5 2c3c 77e9 29be 00d6 e1bc
