Weight/content_weight/jsv2/model.tflite (tflite, 722988 bytes, 17 tensors)

model_1/conv2d_10/Conv2D f4 [1, 3, 3, 1]
-0.1506947 0.22670227 0.10701984 -0.14364132 0.10096729 -0.507736 0.12593472 0.033155322
-0.03960508
00000000: b64f 1abe a424 683e 382d db3d b616 13be
00000010: f0c7 ce3d fdfa 01bf 08f5 003e e0cd 073d
00000020: f038 22bd

model_1/conv2d_9/Conv2D f4 [1, 3, 3, 256]
-0.009699166 0.013064761 0.03325126 0.034353953 -0.0049232803 0.029598039 -0.0467441 -0.03027936
-0.027653461 -0.038257796 0.015863974 0.012211066 0.026526522 -0.0449778 0.013471421 -0.029614832
0.02124669 -0.0039158203 -0.03151171 0.03928789 -0.002881948 0.034544233 -0.032652367 0.04940344
-0.049105734 -0.043569982 0.0039157346 -0.04506654 0.00402382 0.0313969 0.048942532 0.049688634
0.012094859 -0.007298086 0.00675733 -0.023120496 -0.0050503463 0.0053653605 0.041212443 0.014332425
-0.020588316 0.013749819 -0.045307335 0.044628117 -0.0137659125 -0.022045484 -0.045532264 -0.0042044707
0.042200994 -0.012754358 -0.046637572 -0.008129884 -0.012589734 -0.049944878 0.012106288 0.0007764138
-0.0504021 0.01502483 -0.044286687 -0.011005007 0.04647771 0.045774978 0.0122671835 0.027255218
0.01250441 0.0076735243 -0.028831277 0.043736514 0.0010289066 0.0054240115 0.022735622 0.0052215494
-0.033985797 0.032051917 0.030119862 0.00036196038 -0.04902474 -0.027634325 0.027033497 -0.02806851
-0.045471426 -0.03890111 0.041493107 -0.017079096 0.017642643 0.024163801 -0.031924587 0.043017473
-0.034591783 0.044577394 0.026024837 -0.028698904 -0.04408878 -0.023162037 -0.014972143 -0.002740845
-0.0044341944 -0.004227165 0.023460511 -0.0130485855 -0.0084613785 -0.02378925 0.030435871 0.004567951
0.007189829 -0.04826922 -0.0022394955 -0.025736012 0.040070232 -0.0024393834 0.0060590208 0.017643016
-0.026754523 -0.010522541 -0.018398415 0.034831915 -0.043034874 0.012964558 -0.045013633 0.04701237
-0.015674595 0.04109474 0.002430249 -0.0067014247 0.038556855 -0.0023737364 0.024469856 0.04159992
0.018809069 0.038630452 -0.026278418 -0.039827224 -0.0068953484 -0.04252842 -0.0053550377 -0.024144823
-0.030287812 -0.032624923 -0.036435366 0.022743378 0.04067454 0.022982176 0.04940259 0.018452454
-0.027971245 0.0013152622 -0.040366948 -0.02243672 -0.0011091344 -0.034409188 0.02499247 -0.049612425
0.02175406 -0.034092207 -0.012701865 0.011345353 -0.030928176 -0.009887032 -0.0319623 0.008832749
0.036871884 0.018759254 -0.010828689 -0.018786058 -0.013005126 0.031166304 -0.029243533 0.040980216
0.032098155 -0.043495 -0.02588043 0.025687996 0.013875525 -0.026822839 -0.011766437 -0.01784905
-0.012904704 -0.0072670467 0.028394442 0.03496698 -0.04427447 0.0014924891 -0.025081635 -0.007308539
-0.045058854 -0.016073361 0.039489176 0.045491938 -0.019477252 -0.024458125 -0.01387883 -0.010219231
-0.026110942 -0.018574223 -0.045165613 -0.04569186 0.050390128 -0.01147883 -0.033257905 -0.037664242
0.0048792847 0.018240277 -0.0010480061 -0.015329596 -0.03576099 0.03126161 0.0047516264 -0.013448127
0.011122271 0.01762196 -0.03240271 -0.025283769 0.0049589686 -0.04214429 0.03120688 -0.017114736
-0.011098497 -0.014418442 -0.027425682 0.02553897 -0.047755133 0.027204301 0.048480634 0.04751126
-0.013764441 -0.025347168 -0.032414548 -0.0053338856 -0.005037885 0.027198981 -0.038810376 0.02890196
0.04524486 -0.049900483 0.0073811933 0.028726127 -0.041813027 -0.016539652 -0.00020889565 -0.010893654
0.019232426 -0.0022144914 0.01730584 -0.04156916 -0.022534825 -0.044800594 -0.000903748 -0.04648255
0.020767462 0.007618308 0.028308775 0.0068031102 -0.009978674 0.049874354 -0.011314254 -0.024154343
00000000: 40e9 1ebc 940d 563c 7932 083d bbb6 0c3d
00000010: 7853 a1bb 9677 f23c be76 3fbd 6c0c f8bc
00000020: 8389 e2bc 35b4 1cbd 2af5 813c ec10 483c
00000030: 264e d93c a43a 38bd 3cb7 5c3c ce9a f2bc
00000040: 8a0d ae3c 4850 80bb 6c12 01bd 57ec 203d
00000050: 10df 3cbb 417e 0d3d 7dbe 05bd 435b 4a3d
00000060: 1823 49bd 7076 32bd 904f 803b b197 38bd
00000070: 40da 833b 099a 003d f777 483d 4f86 4b3d
00000080: 8429 463c c824 efbb 986c dd3b 3267 bdbc
00000090: 607d a5bb e8cf af3b 61ce 283d 8cd2 6a3c
000000a0: d4a8 a8bc ec46 613c 2f94 39bd f9cb 363d
000000b0: 6c8a 61bc bb98 b4bc 0a80 3abd a8c5 89bb
000000c0: f3da 2c3d a8f7 50bc 0a07 3fbd 3433 05bc
000000d0: 2c45 4ebc 0093 4cbd 7459 463c 4088 4b3a
000000e0: 6f72 4ebd b42a 763c f565 35bd 584e 34bc
000000f0: 695f 3e3d 8b7e 3b3d 4cfc 483c 5646 df3c
00000100: 4cdf 4c3c 3072 fb3b 922f ecbc 0f25 333d
00000110: 60dc 863a e8bb b13b 0e40 ba3c 8819 ab3b
00000120: b134 0bbd df48 033d eebd f63c 80c5 bd39
00000130: 2ace 48bd 6161 e2bc 5a75 dd3c efef e5bc
00000140: 3f40 3abd c556 1fbd adf4 293d 76e9 8bbc
00000150: 4e87 903c 2af3 c53c 5bc3 02bd 1733 303d
00000160: 1db0 0dbd c996 363d 0a32 d53c f719 ebbc
00000170: 7096 34bd 50be bdbc b84d 75bc c09f 33bb
00000180: b84c 91bb 0884 8abb 4230 c03c bcc9 55bc
00000190: 98a1 0abc ace1 c2bc a654 f93c c0ae 953b
000001a0: a898 eb3b f2b5 45bd 80c4 12bb 54d4 d2bc
000001b0: af20 243d 10de 1fbb c08a c63b 1688 903c
000001c0: 4d2c dbbc bc66 2cbc 46b8 96bc e9ab 0e3d
000001d0: 5645 30bd 4c69 543c 3760 38bd 0b90 403d
000001e0: 0268 80bc f552 283d d044 1f3b a097 dbbb
000001f0: cbed 1d3d b090 1bbb 0275 c83c ad64 2a3d
00000200: 7a15 9a3c f73a 1e3d d645 d7bc df21 23bd
00000210: 60f2 e1bb 4832 2ebd 5079 afbb 5dcb c5bc
00000220: 251e f8bc b6a1 05bd 403d 15bd 5250 ba3c
00000230: 599a 263d 1e45 bc3c 5f5a 4a3d 9a29 973c
00000240: f423 e5bc e064 ac3a d057 25bd 36cd b7bc
00000250: 6060 91ba a6f0 0cbd 02bd cc3c 6636 4bbd
00000260: 9235 b23c 45a4 0bbd 7c1b 50bc dce1 393c
00000270: 165d fdbc 38fd 21bc e7ea 02bd 3cb7 103c
00000280: f906 173d 02ad 993c d06a 31bc 38e5 99bc
00000290: 7413 55bc 7a50 ff3c 2290 efbc dfda 273d
000002a0: 5b79 033d d027 32bd 3203 d4bc a26f d23c
000002b0: 2c56 633c 92bb dbbc 04c8 40bc 2c38 92bc
000002c0: 406e 53bc 6820 eebb 769b e83c 8939 0f3d
000002d0: 2659 35bd a09f c33a 0078 cdbc 787c efbb
000002e0: a28f 38bd 48ac 83bc 67bf 213d c155 3a3d
000002f0: c28e 9fbc 685c c8bc 0864 63bc 906e 27bc
00000300: 9de6 d5bc f828 98bc 94ff 38bd 6327 3bbd
00000310: e165 4e3d b411 3cbc 7139 08bd d245 1abd
00000320: 68e2 9f3b a26c 953c 405d 89ba fc28 7bbc
00000330: 1e7a 12bd 2d0c 003d 88b3 9b3b 8855 5cbc
00000340: 303a 363c ee5b 903c b4b8 04bd e81f cfbc
00000350: d87e a23b 7e9f 2cbd 92a5 ff3c 3434 8cbc
00000360: 78d6 35bc 543b 6cbc d3ab e0bc 1a37 d13c
00000370: e39a 43bd 8edb de3c a193 463d 2b9b 423d
00000380: 4084 61bc dda4 cfbc 1ec5 04bd e0c7 aebb
00000390: d814 a5bb 66d0 de3c a1f7 1ebd cec3 ec3c
000003a0: ad52 393d 7364 4cbd f0dd f13b 0e53 eb3c
000003b0: 2344 2bbd 2a7e 87bc 000b 5bb9 4c7b 32bc
000003c0: 528d 9d3c 0021 11bb fac4 8d3c 6c44 2abd
000003d0: f49a b8bc d480 37bd 80e9 6cba 7d64 3ebd
000003e0: 8620 aa3c 00a3 f93b cee7 e73c a0ec de3b
000003f0: 987d 23bc 0d49 4c3d 6c5f 39bc 54df c5bc

model_1/conv2d_8/Conv2D f4 [256, 1, 1, 128]
-0.03319654 0.091175735 -0.033570856 -0.09277347 0.023408592 0.031329215 -0.018225819 0.007675767
-0.06303069 -0.047671527 0.028058559 0.005390972 0.10065499 -0.021600187 -0.10685235 0.018399179
0.020958304 -0.026944846 -0.10619035 0.019215345 -0.06386164 -0.07815513 0.0537529 -0.049085677
-0.036991537 -0.124738336 -0.079018 -0.029733032 0.07367453 0.07319689 0.069884 0.08986691
-0.11832598 0.023581237 -0.108134896 -0.0827291 -0.096281976 -0.10406861 0.055819243 -2.720952e-05
0.119879335 -0.038215518 0.07754645 -0.021525472 0.10175964 0.06701225 -0.010775596 0.0065954328
0.014071345 0.09959909 0.12185174 0.04792285 0.0071216226 -0.055422187 -0.059108794 0.030707508
0.0052123964 0.08150858 -0.050320983 0.09395152 0.050925285 -0.0051064193 0.01826498 -0.00988543
-0.12269941 -0.01591459 -0.023890108 0.0077468455 0.09550232 -0.06925577 0.071917474 0.015024334
0.07957277 0.052618533 0.036392212 -0.07509601 0.0034665167 -0.1169236 0.039806753 -0.09524569
-0.044650197 0.07361615 -0.019351006 0.08857545 -0.054977328 -0.0024808645 0.077741235 0.013586909
-0.027014107 0.058627605 0.015063226 -0.012880862 0.11469728 0.08212912 0.07360414 -0.080165416
-0.10296285 -0.11505899 0.06836465 -0.05858761 0.068006516 0.004422128 0.037142605 -0.055380553
0.10504556 0.07111329 0.07325539 0.07264942 -0.10401657 -0.090774834 0.07751545 0.11069408
0.07876834 -0.009444088 -0.039909363 0.044543564 -0.009325266 -0.077331394 -0.061725676 -0.08242601
-0.00833571 -0.08923501 0.07141951 0.097540826 -0.12186271 0.006635666 -0.124476016 -0.04255277
0.0036552846 -0.11240959 -0.050864547 0.05509016 -0.09489554 0.07768375 0.015629679 -0.033839136
-0.011563212 -0.11367214 -0.070661604 -0.008381784 0.12218857 -0.022448063 -0.09901145 -0.100447595
-0.12108052 -0.08694586 0.036167294 -0.087646246 -0.10867259 -0.09478408 0.087350875 0.09695265
-0.03054443 -0.026998132 0.076684415 -0.1025919 -0.030740708 -0.012508482 -0.12024817 0.051265746
0.107366234 0.016281277 0.124782234 0.017271757 -0.046883017 -0.12340364 0.10878205 -0.11724347
-0.083042294 0.10427275 0.1126751 -0.04575169 0.049851775 0.08194995 -0.12270334 -0.0005450845
0.12381524 -0.061787397 0.05660504 0.08013034 -0.057842582 -0.07861015 0.077804744 0.028934538
0.10704091 -0.029737353 -0.12446979 0.023229867 0.037154824 0.035133094 0.047032207 0.065145284
0.0072606206 0.009471834 0.03095606 -0.045628607 0.08738369 0.11290607 0.03498605 -0.087470114
0.07754156 -0.10847527 0.038785726 -0.069186 -0.11805025 0.012358844 -0.09616852 0.048228383
-0.012164772 -0.11211154 -0.09804261 -0.044139177 0.04413593 0.027066022 -0.019304335 -0.12272325
-0.06908798 0.10699293 0.040955395 -0.07583088 0.10570735 0.0773586 -0.12456271 0.104703814
0.010487765 0.0845266 -0.08925378 0.06929436 -0.11756593 -0.11748451 0.0082243085 -0.01581937
0.04649487 -0.0868707 0.025431722 0.0499835 -0.10754439 0.0016722977 0.046994507 0.11931822
0.0045696497 0.022923231 0.0022175312 -0.0629192 -0.010171324 0.052202374 -0.021413296 0.054942608
-0.07703969 0.04230094 0.02252546 0.07824373 -0.00931716 0.050594687 0.031607866 -0.040058672
00000000: 18f9 07bd 58ba ba3d 9881 09bd 0400 bebd
00000010: 60c3 bf3c 1053 003d 504e 95bc 0085 fb3b
00000020: 3c16 81bd 3843 43bd 10db e53c c0a6 b03b
00000030: 3424 ce3d e0f2 b0bc 68d5 dabd e0b9 963c
00000040: c0b0 ab3c 70bb dcbc 547a d9bd 8069 9d3c
00000050: e4c9 82bd cc0f a0bd 002c 5c3d 100e 49bd
00000060: 7084 17bd d076 ffbd 30d4 a1bd b092 f3bc
00000070: ace2 963d 40e8 953d 581f 8f3d 240c b83d
00000080: e454 f2bd 702d c13c d475 ddbd e06d a9bd
00000090: 7c2f c5bd ec21 d5bd b8a2 643d 0040 e4b7
000000a0: 4c83 f53d e087 1cbd acd0 9e3d 3056 b0bc
000000b0: 5c67 d03d b83d 893d 208c 30bc 801e d83b
000000c0: 808b 663c 9cfa cb3d 688d f93d c04a 443d
000000d0: 805c e93b 6002 63bd 101c 72bd 508e fb3c
000000e0: c0cc aa3b f8ed a63d 601d 4ebd a869 c03d
000000f0: 0897 503d c053 a7bb 70a0 953c 80f6 21bc
00000100: d449 fbbd 505f 82bc 30b5 c3bc 40d9 fd3b
00000110: b896 c33d f8d5 8dbd 7849 933d a028 763c
00000120: 0cf7 a23d 8886 573d 0010 153d f0cb 99bd
00000130: 802e 633b a475 efbd 680c 233d 2c10 c3bd
00000140: 20e3 36bd 10c4 963d 0086 9ebc 0c67 b53d
00000150: e82f 61bd 0096 22bb cc36 9f3d a09b 5e3c
00000160: b04c ddbc 8023 703d c0cb 763c 400a 53bc
00000170: 68e6 ea3d 5033 a83d c4bd 963d c42d a4bd
00000180: 30de d2bd 0ca4 ebbd c402 8c3d 90f9 6fbd
00000190: 0047 8b3d 80e7 903b d822 183d b8d6 62bd
000001a0: 2022 d73d d8a3 913d ec06 963d 38c9 943d
000001b0: a406 d5bd 28e8 b9bd 6cc0 9e3d 94b3 e23d
000001c0: 4c51 a13d 60bb 1abc 0078 23bd 5073 363d
000001d0: 00c9 18bc ec5f 9ebd 10d4 7cbd f8ce a8bd
000001e0: 8092 08bc d8c0 b6bd 6444 923d 7cc3 c73d
000001f0: 2893 f9bd 0070 d93b 48ed febd d04b 2ebd
00000200: 808d 6f3b 0037 e6bd 5857 50bd 38a6 613d
00000210: 9858 c2bd a818 9f3d d009 803c e89a 0abd
00000220: a073 3dbc f0cc e8bd 08b7 90bd c053 09bc
00000230: 003e fa3d 00e5 b7bc 84c6 cabd 78b7 cdbd
00000240: 10f9 f7bd ac10 b2bd 2824 143d e07f b3bd
00000250: bc8f debd 281e c2bd 04e5 b23d 1c8f c63d
00000260: 5038 fabc 302b ddbc b80c 9d3d b41b d2bd
00000270: f0d3 fbbc 60f0 4cbc ac44 f6bd 08fc 513d
00000280: d4e2 db3d 5060 853c d48d ff3d 807d 8d3c
00000290: 6808 40bd 0cbb fcbd 20c9 de3d 581d f0bd
000002a0: 1412 aabd f48c d53d 34c2 e63d 2066 3bbd
000002b0: 6031 4c3d 60d5 a73d e44b fbbd 00e4 0eba
000002c0: d892 fd3d c814 7dbd b0da 673d 601b a43d
000002d0: 58ec 6cbd 5cfe a0bd 1858 9f3d 2008 ed3c
000002e0: 4438 db3d c09b f3bc 04ea febd 904c be3c
000002f0: a82f 183d b8e7 0f3d d8a4 403d e46a 853d
00000300: 80ea ed3b c02f 1b3c 9097 fd3c 10e5 3abd
00000310: 38f6 b23d 4c3b e73d 884d 0f3d 8823 b3bd
00000320: 1cce 9e3d 4828 debd c8dd 1e3d 64b1 8dbd
00000330: 54c4 f1bd c07c 4a3c 00f4 c4bd 208b 453d
00000340: c04e 47bc bc9a e5bd 90ca c8bd 48cb 34bd
00000350: e0c7 343d 90b9 dd3c 2024 9ebc 5456 fbbd
00000360: 007e 8dbd 1c1f db3d d8c0 273d 384d 9bbd
00000370: 187d d83d 306e 9e3d bc1a ffbd f46e d63d
00000380: e0d4 2b3c 481c ad3d b0ca b6bd 34ea 8d3d
00000390: 68c6 f0bd b89b f0bd 40bf 063c a097 81bc
000003a0: 6871 3e3d 44e9 b1bd 3056 d03c 80bb 4c3d
000003b0: 3c40 dcbd 0031 db3a 507d 403d 1c5d f43d
000003c0: 00bd 953b 80c9 bb3c 0054 113b c8db 80bd
000003d0: a0a5 26bc 28d2 553d f06a afbc 800b 613d
000003e0: fcc6 9dbd c043 2d3d 5087 b83c 403e a03d
000003f0: 00a7 18bc 603c 4f3d 4077 013d 9014 24bd

model_1/conv2d_7/Conv2D f4 [128, 1, 1, 128]
-0.013152063 0.068395615 0.04391417 -0.14705995 -0.032711662 0.0866549 0.10224058 -0.04969468
-0.09344974 -0.09582883 -0.1217604 0.038382307 -0.11251685 0.04360567 -0.105522454 0.08301732
-0.018540949 0.0056340694 -0.03317131 -0.007353008 0.14002852 0.120977804 0.024298653 0.07637894
-0.030662686 0.027789861 -0.12426088 0.08178876 -0.058768786 -0.019497767 0.13445024 -0.11965324
0.14284508 -0.035135023 0.0645017 -0.07604625 -0.091178484 -0.07935091 0.1120507 0.06740014
0.019318193 -0.0089120865 -0.065943636 0.14069627 -0.09050644 -0.05197715 -0.033086926 -0.14388779
0.0642931 0.09283511 0.07171138 -0.08588336 -0.057762258 0.03044048 0.04386869 0.014048398
0.038007587 -0.09662133 -0.10433138 0.15211673 0.10146569 0.058595195 -0.06420878 -0.12995812
0.10657118 -0.12636676 0.038204044 -0.003012687 0.14711873 -0.071557194 -0.09708279 -0.0070990026
0.059278578 -0.12874435 0.14006577 0.15048642 -0.075476915 -0.11413692 0.14139135 0.04534903
-0.02612564 -0.11127471 -0.015720576 -0.14831206 0.03993678 0.08828613 0.121392354 -0.15250006
-0.012421951 -0.11804488 -0.053586952 -0.1139704 0.015188694 -0.09502736 0.0075200647 -0.11913668
0.11939989 -0.074431255 -0.040307365 -0.13158385 0.0262485 -0.027659342 0.119871154 0.112542465
-0.09877896 0.0887115 -0.0023011267 -0.07145225 -0.110596836 0.10971008 -0.09249987 -0.017457083
-0.0030879527 -0.019202083 0.06635511 -0.11925319 -0.13362479 0.03590387 0.080118105 0.004026264
0.12824951 -0.004128471 -0.016316488 0.06737992 -0.052851655 -0.07424996 0.0059821755 0.13294692
0.14123203 -0.095244825 0.069058865 -0.0077854246 0.12562396 0.1283624 0.011637807 -0.03916841
-0.012356311 0.07093924 0.058564752 0.05009304 -0.06656633 0.052615717 0.096707836 0.08987941
-0.0851516 0.039872617 -0.08003697 -0.040160887 -0.11208826 -0.027593642 0.11861341 -0.14449154
0.06757034 -0.0604413 0.10820104 0.01763983 -0.112947665 0.10464607 0.022979751 0.12824036
-0.011964664 -0.07373097 -0.004422143 0.14745261 -0.07924834 0.08164954 -0.08325026 0.10786109
-0.07370998 -0.06779876 0.08434202 -0.054781795 -0.15067782 0.026201695 -0.01226905 -0.04971738
0.08094944 0.10413103 -0.07322803 0.095265746 0.10088654 0.121454135 0.07351419 0.11856292
0.12848373 0.103994146 -0.083338924 -0.12647134 -0.00066511333 -0.097423896 0.016915083 0.015452266
0.007178396 0.019170254 -0.066401936 0.1184565 0.07403085 -0.1175767 0.13838555 -0.059286617
-0.004038453 0.07437512 0.095617965 -0.022540718 -0.057481788 0.051133335 -0.13403827 -0.15287653
-0.14967665 -0.11425437 -0.1167903 -0.14203942 0.090854466 0.111033544 -0.08489613 0.057020932
-0.0842753 0.062177792 -0.10306318 -0.04900369 -0.10003373 0.02501978 0.14044674 0.10695906
-0.07961893 0.116335884 0.06801163 -0.089031756 0.0007481128 -0.08867978 -0.027208194 -0.13774946
-0.1475814 -0.012675434 0.14888667 -0.011856452 -0.11697762 -0.14167047 -0.122934386 -0.024426252
0.08435269 0.13403337 -0.095702246 0.14537947 0.0047970116 -0.13340616 -0.08435414 0.04973823
0.1317711 0.043209866 0.108782485 0.12250771 -0.11181565 0.13156725 0.08430129 -0.099163935
00000000: c07b 57bc 0013 8c3d 58df 333d e296 16be
00000010: aafc 05bd 2078 b13d 8263 d13d a68c 4bbd
00000020: 9462 bfbd e841 c4bd 845d f9bd c436 1d3d
00000030: 3c6f e6bd dc9b 323d 281c d8bd fc04 aa3d
00000040: 30e3 97bc 009e b83b a4de 07bd 80f1 f0bb
00000050: a363 0f3e 36c3 f73d f80d c73c 906c 9c3d
00000060: 5030 fbbc 90a7 e33c 7d7c febd de80 a73d
00000070: 8ab7 70bd c8b9 9fbc 53ad 093e c20c f5bd
00000080: fb45 123e bee9 0fbd 7819 843d 23be 9bbd
00000090: c9bb babd bb82 a2bd d67a e53d 1609 8a3d
000000a0: 3041 9e3c 0004 12bc 750d 87bd af12 103e
000000b0: 715b b9bd fee5 54bd 2886 07bd 5257 13be
000000c0: 1aac 833d 5620 be3d 6add 923d 9de3 afbd
000000d0: 1e98 6cbd 505e f93c a8af 333d 402b 663c
000000e0: d8ad 1b3d 67e1 c5bd b1ab d5bd 7dc4 1b3e
000000f0: 3ecd cf3d 8401 703d e57f 83bd be13 05be
00000100: fe41 da3d 4a66 01be d87b 1c3d 8070 45bb
00000110: 4ba6 163e 948c 92bd 58d3 c6bd c09e e8bb
00000120: 18ce 723d 8fd5 03be 676d 0f3e 1d19 1a3e
00000130: a493 9abd 9ec0 e9bd e5c8 103e e8bf 393d
00000140: 7005 d6bc ffe3 e3bd 70c8 80bc 1edf 17be
00000150: c094 233d 5ccf b43d 8e9c f83d fa28 1cbe
00000160: 7085 4bbc 84c1 f1bd fe7d 5bbd 5069 e9bd
00000170: 00da 783c b49d c2bd e06a f63b effd f3bd
00000180: ee87 f43d 6a6f 98bd 5619 25bd ebbd 06be
00000190: 1807 d73c d895 e2bc 027f f53d aa7c e63d
000001a0: a04c cabd 60ae b53d 80ce 16bb 8f55 92bd
000001b0: 9880 e2bd aeaf e03d 9270 bdbd 2802 8fbc
000001c0: 405f 4abb b04d 9dbc 30e5 873d 043b f4bd
000001d0: f0d4 08be f00f 133d f614 a43d c0ee 833b
000001e0: d753 033e 2048 87bb 28aa 85bc 7cfe 893d
000001f0: fa7a 58bd 5d10 98bd 2006 c43b 3d23 083e
00000200: 219f 103e b80f c3bd bc6e 8d3d e01c ffbb
00000210: 91a3 003e 6f71 033e 80ac 3e3c 0e6f 20bd
00000220: 2072 4abc 9848 913d 98e1 6f3d 5c2e 4d3d
00000230: ee53 88bd 9483 573d c20e c63d b212 b83d
00000240: f663 aebd 7851 233d 6cea a3bd be7f 24bd
00000250: 888e e5bd 100c e2bc 96eb f23d 97f5 13be
00000260: 5262 8a3d 4c91 77bd 8298 dd3d 6881 903c
00000270: 1b51 e7bd ae50 d63d 0840 bc3c 7151 033e
00000280: 7007 44bc 4300 97bd a0e7 90bb d1fd 163e
00000290: f44c a2bd e037 a73d 1d7f aabd 46e6 dc3d
000002a0: 42f5 96bd 14da 8abd 82bb ac3d e062 60bd
000002b0: 494b 1abe f0a4 d63c 2004 49bc 74a4 4bbd
000002c0: d2c8 a53d a642 d53d 94f8 95bd b01a c33d
000002d0: 9a9d ce3d f2bc f83d 9c8e 963d 1ed1 f23d
000002e0: 3d91 033e e2fa d43d 99ad aabd b481 01be
000002f0: 005b 2eba 2e86 c7bd 8091 8a3c 802b 7d3c
00000300: c038 eb3b f00a 9d3c bdfd 87bd 5299 f23d
00000310: 7c9d 973d 0ecc f0bd f1b4 0d3e 86d6 72bd
00000320: 0055 84bb fc51 983d 5ad3 c33d 50a7 b8bc
00000330: 0672 6bbd 3071 513d 5441 09be aa8b 1cbe
00000340: d644 19be 32fe e9bd c12f efbd c872 11be
00000350: e811 ba3d 8e65 e33d 06de adbd c88e 693d
00000360: 8798 acbd 24ae 7e3d ca12 d3bd 18b8 48bd
00000370: 7cde ccbd 48f6 cc3c 45d1 0f3e 5a0d db3d
00000380: 400f a3bd 8241 ee3d ae49 8b3d 4856 b6bd
00000390: 001d 443a bf9d b5bd b8e3 debc 320e 0dbe
000003a0: 941f 17be a0ac 4fbc bf75 183e 9041 42bc
000003b0: f691 efbd 1012 11be 06c5 fbbd 9019 c8bc
000003c0: 1ac1 ac3d 0b40 093e 8aff c3bd 5bde 143e
000003d0: 4030 9d3b a09b 08be ddc1 acbd 50ba 4b3d
000003e0: 01ef 063e d4fc 303d 5ac9 de3d 52e5 fa3d
000003f0: 9aff e4bd 91b9 063e 28a6 ac3d 7616 cbbd

model_1/conv2d_6/Conv2D f4 [128, 1, 1, 96]
-0.010121807 -0.008186638 -0.14888252 -0.06454793 0.08990303 0.027863652 -0.13375686 -0.13182917
-0.014342651 0.07023968 -0.15067364 -0.017416596 -0.015566766 0.072987616 -0.11608183 0.015911967
-0.008968845 0.08754009 -0.087271385 -0.10030947 0.06661676 -0.018233836 0.082616836 0.076919004
-0.13070366 0.086284995 -0.0030615479 -0.089095905 -0.05584888 0.029013768 0.15117747 0.055498213
-0.1333814 0.06746912 -0.059942864 0.014913797 -0.018523172 0.010474443 -0.05630523 0.109531194
-0.04134176 0.07647191 0.015266225 -0.138319 -0.065400645 0.058380917 -0.0011914521 0.11986962
0.15125006 0.049255997 -0.020213425 -0.09679205 0.08518754 0.049883872 -0.045768395 -0.12910196
-0.042273723 0.042771623 -0.16128466 -0.050100513 0.14058238 -0.053950034 0.12222406 0.10970476
0.12750262 0.11628887 -0.10748887 0.15352806 -0.056585588 0.13144317 0.021714702 0.07322791
0.12036201 0.10129228 -0.093615204 -0.12588316 0.13253996 0.14774999 0.039818168 0.007138163
0.010978699 0.006046638 0.014233708 0.06321679 -0.0051062107 0.02300927 -0.09190814 -0.12939195
0.018624201 -0.021946788 -0.027976647 0.03263101 -0.11666393 0.07785253 -0.086781874 0.10743502
0.080899864 -0.011023179 0.09204236 0.049614042 0.16141286 0.14676797 0.08507739 0.09421557
0.14721471 -0.013308331 -0.0006104708 0.10169977 0.107645065 -0.008744314 0.06742433 -0.018445209
-0.003487721 0.03351368 -0.1039734 -0.15829003 0.0044523776 0.00020040572 0.033699542 -0.057921916
0.113870144 -0.12203084 -0.13481681 0.082041085 -0.14018317 -0.014894471 0.091849774 -0.09951903
-0.10065593 0.12618074 -0.12416065 -0.1346283 0.13092834 -0.15754072 -0.11247552 0.09851703
-0.09746387 -0.1163145 -0.13258356 0.065460116 0.15927616 0.04086654 -0.14133477 -0.035435244
-0.092737556 -0.013037771 0.116249144 0.045315444 0.14206743 -0.08584359 -0.00065530837 -0.04344984
-0.069961935 0.03716865 -0.055018254 -0.047233023 0.108269155 -0.11877919 -0.10351768 0.031867847
0.13981107 -0.07258684 -0.12430927 0.14296088 0.11676645 -0.1622039 -0.08163099 0.07712105
-0.11322869 0.10574907 -0.12598118 -0.14764005 -0.06820395 -0.08579755 -0.050538205 0.04859355
-0.06459507 0.14682963 0.0205881 -0.16030657 0.15770161 0.16309866 0.110839546 0.06222135
0.091475725 -0.04962884 0.07214762 -0.043038055 0.1530985 0.1410056 0.066407606 -0.014994949
0.08439414 -0.09230537 0.11610031 -0.027823463 0.0967738 -0.02113466 0.060624316 0.13528004
-0.06556149 -0.005286321 0.013413608 -0.11061374 -0.050833434 0.072984144 0.06995569 0.11884692
-0.045800664 0.10908738 0.052056953 0.08544773 -0.14016108 -0.14767617 0.009543255 0.0017507225
0.021755978 0.076087594 -0.12630251 0.0005656332 0.09672052 -0.12482461 -0.13903472 -0.018494576
-0.12656966 0.10815877 0.030077353 0.0053104013 -0.0974003 0.11587015 0.012754098 -0.061699092
0.09684357 0.13159445 0.12956876 0.026420131 -0.009575844 -0.06822463 -0.022634178 0.13085589
0.060345247 0.006023541 0.051085472 0.15773466 0.11101249 -0.13150582 0.01646696 -0.15574247
-0.044341885 -0.13060245 0.1486203 -0.07905572 0.10719767 -0.10509044 0.06728065 -0.119961075
00000000: f0d5 25bc 4021 06bc a974 18be b531 84bd
00000010: 141f b83d 5042 e43c 8ff7 08be 3afe 06be
00000020: 70fd 6abc d2d9 8f3d 314a 1abe 40ad 8ebc
00000030: c00b 7fbc 887a 953d 4fbc edbd d059 823c
00000040: 10f2 12bc 3848 b33d 57bb b2bd 0d6f cdbd
00000050: 5e6e 883d 205f 95bc 0433 a93d b687 9d3d
00000060: 2ed7 05be 30b6 b03d 40a4 48bb ea77 b6bd
00000070: ccc1 64bd 48ae ed3c 44ce 1a3e 1852 633d
00000080: 2295 08be 402d 8a3d a686 75bd 0059 743c
00000090: e8bd 97bc 009d 2b3c 50a0 66bd e451 e03d
000000a0: fa55 29bd 4e9d 9c3d 301f 7a3c 7fa3 0dbe
000000b0: c6f0 85bd d420 6f3d 802a 9cba 347e f53d
000000c0: 4ce1 1a3e a8c0 493d a096 a5bc e93a c6bd
000000d0: ce76 ae3d 0853 4c3d a477 3bbd 4e33 04be
000000e0: 3627 2dbd 4c31 2f3d ce27 25be 3236 4dbd
000000f0: d4f4 0f3e b6fa 5cbd 9c50 fa3d e4ac e03d
00000100: 0c90 023e dc28 ee3d 2023 dcbd 7636 1d3e
00000110: 4ac6 67bd 0a99 063e 08e3 b13c 84f8 953d
00000120: 5c80 f63d 5472 cf3d 54b9 bfbd 84e7 00be
00000130: 8eb8 073e c64b 173e 6018 233d 40e7 e93b
00000140: 00e0 333c e022 c63b 8034 693c ce77 813d
00000150: 0052 a7bb f07d bc3c 563a bcbd 537f 04be
00000160: c891 983c c0c9 b3bc 482f e5bc 18a8 053d
00000170: 80ed eebd 2671 9f3d b2ba b1bd e406 dc3d
00000180: d4ae a53d 909a 34bc b480 bc3d 1838 4b3d
00000190: 6a49 253e 584a 163e 0e3d ae3d 18f4 c03d
000001a0: 74bf 163e 300b 5abc 0008 20ba f847 d03d
000001b0: 0475 dc3d 5044 0fbc c415 8a3d 681a 97bc
000001c0: 4092 64bb a445 093d 02f0 d4bd c816 22be
000001d0: 40e5 913b 0024 5239 8808 0a3d 883f 6dbd
000001e0: c034 e93d 4eeb f9bd 6b0d 0abe 2805 a83d
000001f0: 2d8c 0fbe f007 74bc bc1b bc3d a2d0 cbbd
00000200: b224 cebd 8635 013e f047 febd 00dc 09be
00000210: 1412 063e 5b52 21be 9159 e6bd 4cc3 c93d
00000220: 239b c7bd 4c36 eebd fcc3 07be f40f 863d
00000230: 4a19 233e ac63 273d 10ba 10be 8c24 11bd
00000240: 30ed bdbd 609c 55bc 0814 ee3d b09c 393d
00000250: 207a 113e c4ce afbd 00c9 2bba 76f8 31bd
00000260: 3448 8fbd 283e 183d d25a 61bd 6a77 41bd
00000270: 38bc dd3d 8142 f3bd 1401 d4bd dc87 023d
00000280: a22a 0f3e 69a8 94bd dc95 febd 5664 123e
00000290: 4023 ef3d c718 26be 262e a7bd a4f1 9d3d
000002a0: 72e4 e7bd f892 d83d 3601 01be f42e 17be
000002b0: 83ae 8bbd a0b6 afbd 2601 4fbd 080a 473d
000002c0: 6c4a 84bd 825a 163e 60a8 a83c 6827 24be
000002d0: 887c 213e 5603 273e d8ff e23d d0db 7e3d
000002e0: a057 bb3d 9c47 4bbd 22c2 933d ac48 30bd
000002f0: dac5 1c3e c663 103e b600 883d 60ad 75bc
00000300: d6d6 ac3d 990a bdbd 00c6 ed3d 08ee e3bc
00000310: 5831 c63d 9822 adbc 3451 783d da86 0a3e
00000320: 1a45 86bd e038 adbb c0c4 5b3c 7589 e2bd
00000330: b836 50bd b678 953d ee44 8f3d 0466 f33d
00000340: 7a99 3bbd 3469 df3d ac39 553d 38ff ae3d
00000350: 6386 0fbe 6c38 17be 505b 1c3c 8078 e53a
00000360: 9839 b23c d0d3 9b3d 7255 01be 0047 143a
00000370: 6815 c63d 0ca4 ffbd 1e5f 0ebe f081 97bc
00000380: 7a9b 01be 5882 dd3d c864 f63c e002 ae3b
00000390: cf79 c7bd 544d ed3d 90f6 503c 30b8 7cbd
000003a0: ec55 c63d b2c0 063e acad 043e 086f d83c
000003b0: 00e4 1cbc 5bb9 8bbd 506b b9bc 16ff 053e
000003c0: 942c 773d 2061 c53b 003f 513d 3285 213e
000003d0: 845a e33d 76a9 06be b8e5 863c f47a 1fbe
000003e0: d69f 35bd a6bc 05be ec2f 183e f7e7 a1bd
000003f0: 748a db3d a839 d7bd 70ca 893d 27ae f5bd

model_1/conv2d_5/Conv2D f4 [32, 5, 5, 96]
-0.024796335 -0.0081659 -0.018614283 0.018814143 -0.02172097 0.0013263337 0.012124397 0.0045111105
-0.008980118 0.032731228 0.020259 -0.0070283487 -0.0053686276 -0.010977026 0.03700319 -0.033329442
-0.0064288117 -0.02628882 -0.03694099 -0.015878614 0.023145236 -0.032280244 0.006631285 0.04144354
0.04203669 -0.035526603 0.03444352 -0.028456246 -0.03953367 0.03994263 -0.024054693 1.4092773e-05
-0.0056986287 -0.031669084 -0.019103395 -0.00041905418 -0.010203101 0.030819036 0.026446529 0.014985748
-0.027009744 -0.028915925 0.043128245 0.02028466 -0.02794596 0.012837607 0.034023844 -0.032353543
0.029680505 -0.041123282 -0.009842746 0.007879682 -0.031505935 0.004911054 0.007143736 0.026896484
0.020998634 0.04060381 -0.017382083 0.021272697 0.025372274 -0.0014467612 0.014136292 -0.0423771
0.032607324 0.042764574 -0.023180254 -0.0016257875 0.01494471 -0.0001844056 -0.018519036 -0.00358662
0.025322706 0.029397927 -0.013900487 -0.0045741983 0.010320596 0.033084266 0.025916778 0.0016278923
-0.031615894 0.029157348 -0.030400027 0.034800455 0.006282959 0.007814344 -0.023184063 0.02786751
-0.034813568 0.026858926 0.018302783 -0.016174886 0.03344813 0.017602682 -0.026945746 0.021315262
0.034855917 0.02342724 -0.027438905 -0.031323213 -0.001385685 -0.043219123 0.019454293 0.027290039
-0.029533219 -0.0036902316 -0.0037143156 -0.02420731 0.014585659 -0.0008306764 -0.025355041 0.0026152022
-0.0094775 -0.032815814 0.0064311363 0.0005635582 0.0034791306 0.025500052 -0.023442892 -0.014423016
-0.0344649 -0.014272753 0.025988996 0.014691923 0.018525168 0.036412098 0.0026681945 0.041000895
0.026959509 -0.023352219 -0.009570848 0.009208947 0.030478388 -0.022101961 0.018820915 0.03520678
-0.031924702 0.037982866 -0.02242168 -0.039122246 0.023486018 -0.012060521 0.024273217 -0.009009499
0.005183812 0.042836353 0.04158538 -0.008033022 0.018493608 -0.0326226 -0.0060351975 -0.035435844
-0.006520942 -0.040675364 0.04111039 0.012131859 -0.04046325 0.029239483 -0.03765013 -0.03363631
-0.034810387 0.04083533 -0.023126055 0.01900122 0.014629059 0.030779354 0.003975168 0.037302524
-0.019153373 -0.018125605 -0.032481268 0.008268941 -0.0035222508 -0.009677567 -0.015690174 -0.040819265
-0.018878212 -0.005602494 -0.0118366815 0.024109975 0.014426146 0.016714461 0.000303749 0.019875452
-0.0019271187 -0.021519946 0.03047306 -0.0054068044 0.026456408 -0.036038168 -0.039293177 -0.027584141
-0.026012978 0.042198718 -0.032185473 0.03964831 -0.008180354 -0.015253961 0.025168672 -0.003732238
-0.016520187 0.039447956 0.023216508 -0.032232743 0.017810285 0.019449681 0.023014843 -0.006228499
-0.0077730045 -0.023371782 0.034963623 -0.006340772 0.02857811 0.039187722 0.017672617 -0.02999305
-0.036504082 -0.011290241 0.032881 -0.03771045 -0.022068027 -0.02974564 -0.018517064 -0.005589392
-0.03185705 -0.029115908 -0.03946436 0.011648983 0.009835284 -0.009828489 -0.018468656 0.0384634
-0.02627192 -0.0154772345 -0.031780425 0.014545314 -0.024406044 -0.030630516 -0.01755828 0.03007266
-0.0022894852 -0.040500157 -0.032443173 -0.029874327 0.027153723 0.02156505 0.042392217 0.036070578
-0.025350941 -0.027050348 0.012597486 0.039173618 0.024320431 0.026171029 0.022389628 0.010594189
00000000: af21 cbbc 44ca 05bc fb7c 98bc 1e20 9a3c
00000010: 2df0 b1bc 60d8 ad3a 68a5 463c f0d1 933b
00000020: 5821 13bc 2e11 063d 34f6 a53c 104e e6bb
00000030: 50eb afbb fcd8 33bc a890 173d 7484 08bd
00000040: c8a8 d2bb a75b d7bc 6f4f 17bd de13 82bc
00000050: 149b bd3c 4a38 04bd 404b d93b b4c0 293d
00000060: aa2e 2c3d 5884 11bd a614 0d3d 131d e9bc
00000070: 0fee 21bd e29a 233d 590e c5bc 0070 6c37
00000080: 90bb babb 71b7 01bd b97e 9cbc 80b4 dbb9
00000090: e82a 27bc 3478 fc3c 64a6 d83c c886 753c
000000a0: 8a43 ddbc 17e1 ecbc 3ea7 303d 042c a63c
000000b0: edee e4bc d454 523c 965c 0b3d 2685 04bd
000000c0: 8824 f33c e370 28bd 7843 21bc c819 013c
000000d0: 5e0c 01bd e8ec a03b 0016 ea3b 0456 dc3c
000000e0: 5405 ac3c 2e50 263d df64 8ebc 1444 ae3c
000000f0: 84d9 cf3c 40a1 bdba e89b 673c 9c93 2dbd
00000100: 428f 053d e829 2f3d 84e4 bdbc 6018 d5ba
00000110: a8da 743c 005d 41b9 3cb5 97bc 800d 6bbb
00000120: 9071 cf3c ecd3 f03c debe 63bc 28e3 95bb
00000130: b817 293c 5e83 073d 6c4f d43c 005f d53a
00000140: ab7f 01bd 64db ee3c 7a09 f9bc ec8a 0e3d
00000150: 48e1 cd3b bc07 003c 81ec bdbc 684a e43c
00000160: ac98 0ebd 4007 dc3c b8ef 953c 3281 84bc
00000170: e800 093d 8033 903c 53bd dcbc 589d ae3c
00000180: 14c5 0e3d 7cea bf3c 8ec7 e0bc c54c 00bd
00000190: e09f b5ba 8906 31bd 9c5e 9f3c 5c8f df3c
000001a0: a6ef f1bc d0d7 71bb e06b 73bb 694e c6bc
000001b0: b0f8 6e3c c0c1 59ba 60b5 cfbc d063 2b3b
000001c0: 8447 1bbc e069 06bd 48bc d23b c0bb 133a
000001d0: 2002 643b 7ce5 d03c 4f0b c0bc 844e 6cbc
000001e0: 112b 0dbd 44d8 69bc e0e6 d43c 64b6 703c
000001f0: 18c2 973c da24 153d e0dc 2e3b 8ef0 273d
00000200: 30da dc3c 274d bfbc 0ccf 1cbc 20e1 163c
00000210: d0ad f93c 2c0f b5bc 522e 9a3c fc34 103d
00000220: 7ac3 02bd ec93 1b3d acad b7bc a63e 20bd
00000230: c065 c03c 7e99 45bc a0d8 c63c 949c 13bc
00000240: f8dc a93b 2c75 2f3d 6e55 2a3d f09c 03bc
00000250: e87f 973c 479f 05bd e8c2 c5bb 2d25 11bd
00000260: a0ad d5bb 369b 26bd 5e63 283d b4c4 463c
00000270: cbbc 25bd a487 ef3c 0637 1abd 3ac6 09bd
00000280: 5695 0ebd f242 273d da72 bdbc 72a8 9b3c
00000290: b8ae 6f3c fc24 fc3c 2042 823b 88ca 183d
000002a0: 89e7 9cbc 267c 94bc 140b 05bd 747a 073c
000002b0: 90d5 66bb a88e 1ebc ae88 80bc 1a32 27bd
000002c0: 7ba6 9abc 2095 b7bb a4ee 41bc 4882 c53c
000002d0: a45b 6c3c c4ec 883c 8040 9f39 d8d1 a23c
000002e0: 6097 fcba 994a b0bc a4a2 f93c 902b b1bb
000002f0: 1cbb d83c c29c 13bd e2f1 20bd 23f8 e1bc
00000300: 2b19 d5bc 90d8 2c3d ead4 03bd 4466 223d
00000310: e406 06bc c0eb 79bc 882e ce3c 9098 74bb
00000320: 5855 87bc 2e94 213d 8c30 be3c 7b06 04bd
00000330: e0e6 913c f054 9f3c a089 bc3c 7018 ccbb
00000340: b0b4 febb 2e76 bfbc 0436 0f3d 40c6 cfbb
00000350: a41c ea3c 4e83 203d 2ac6 903c fcb3 f5bc
00000360: 4e85 15bd b4fa 38bc 3aae 063d 4676 1abd
00000370: 02c8 b4bc 21ad f3bc 19b1 97bc 3827 b7bb
00000380: 8a7c 02bd 7c84 eebc 61a5 21bd 60db 3e3c
00000390: 2c24 213c ac07 21bc 944b 97bc cc8b 1d3d
000003a0: 3638 d7bc 3a94 7dbc 312c 02bd 784f 6e3c
000003b0: 2fef c7bc d9ec fabc 62d6 8fbc f05a f63c
000003c0: 300b 16bb 7ee3 25bd 22e3 04bd 01bb f4bc
000003d0: 7c71 de3c 30a9 b03c 76a3 2d3d bebe 133d
000003e0: c7ac cfbc b198 ddbc b065 4e3c 8474 203d
000003f0: a43b c73c a064 d63c 746a b73c 4093 2d3c

model_1/conv2d_4/Conv2D f4 [32, 3, 3, 96]
-0.0014536455 0.06580271 -0.07072113 -0.0014629588 0.06361604 0.017231084 -0.0199037 0.036613435
-0.06961651 0.019155726 -0.014243543 0.0068113655 0.009086981 -0.017457075 -0.011342805 0.0001199469
0.026379704 0.04174806 0.010784581 -0.0066612586 0.060285628 0.017150886 0.027871102 0.041149795
0.010541715 0.07134795 -0.00921651 0.00058376044 -0.03937659 0.050310522 -0.024969 -0.0033186823
0.024784908 -0.05191464 0.019269288 0.041854292 -0.015236128 -0.036717378 -0.04554487 0.023370601
-0.02803855 -0.06008834 -0.049266733 -0.014837455 -0.019439355 -0.027705573 0.015999973 -0.0336055
-0.01503206 -0.054785267 -0.07119753 -0.0021201149 -0.06649754 -0.05561191 0.028418466 -0.030780576
0.030861877 -0.0051612407 0.038727686 -0.035854705 -0.06416219 0.069824874 0.04954516 0.018622912
0.05988513 0.017442092 -0.070005305 0.039227724 0.004650302 -0.045037128 0.025460452 0.03593129
-0.05709383 -0.06969339 -0.020955853 -0.0041692927 0.0047349706 -0.013892103 -0.045563266 0.05993952
-0.032582756 -0.06883083 0.028620556 0.06494211 0.07085924 0.005498886 0.016750634 -0.04266516
0.068285555 -0.015284788 -0.05004444 0.06475298 0.03475155 -0.065315634 -0.020595707 -0.058198027
0.029545672 0.024662659 0.06509358 -0.006208524 0.05302246 0.050788462 -0.03108463 -0.0682245
-0.038612027 0.06526291 -0.0698952 -0.0007087514 -0.052746445 -0.038689386 -0.035020985 -0.050125793
0.009477153 0.0055461675 -0.0066407323 -0.040898994 0.034365542 0.010197602 -0.029846735 0.030527644
-0.021713246 0.03098566 -0.029035162 0.07153846 -0.004521355 -0.013993416 -0.04281933 -0.009379573
0.014120899 0.06887323 -0.03643093 0.016157389 -0.016728006 0.07119253 -0.0070611164 -0.010118898
0.021743804 0.04577776 -0.022925608 -0.0120540485 -0.06956754 0.0684693 0.05554658 -0.027734444
0.049653254 0.041854464 0.033197388 -0.0065828487 0.006607458 -0.00055695325 -0.05235094 -0.016629051
-0.05047591 0.06298193 0.014575005 0.047804482 -0.0020317808 -0.031164952 -0.032956306 0.066841826
0.03759616 -0.021105379 0.042837843 -0.029795028 0.069910154 -0.039592978 0.0023348331 -0.0033609942
-0.031131897 -0.012076039 -0.04999391 0.0391569 0.05352898 -0.058048144 0.0129879415 0.0028842017
0.035434768 0.052931055 0.0699455 -0.004382722 0.0029437542 0.047717586 -0.05650167 0.062168762
0.0676561 0.019654758 0.024335876 -0.010153174 0.03459876 -0.059891015 -0.07135284 -0.027753718
-0.04930102 -0.007911921 -0.062089216 -0.06386824 -0.02410784 0.06668274 -0.010370113 0.038372412
-0.046936024 -0.021196056 -0.023223605 -0.06526223 -0.015501779 0.0096074045 -0.01735881 0.0046809465
-0.031851348 -0.0071587116 0.040658623 -0.06267074 0.06475097 0.061319128 0.048157953 0.068809554
0.0055988505 -0.061688136 -0.05087023 -0.05783919 0.0551551 -0.03638208 0.052375473 -0.053798735
-0.04940793 -0.009022541 0.04126735 -0.022123203 -0.015852202 0.04300122 -0.038474012 0.007794246
-0.068951726 0.0021012276 0.06780344 -0.04168266 0.05249434 -0.021209978 -0.04191388 0.057308987
-0.0012292042 0.0053304657 0.05570051 0.01355961 0.025991976 -0.022381265 0.07182811 -0.0033210367
0.015767425 0.022594817 -0.047036853 -0.031937946 -0.045478143 -0.0041978434 0.033157036 0.009299964
00000000: 4088 beba 92c3 863d 3dd6 90bd c0c0 bfba
00000010: 2049 823d 3428 8d3c 160d a3bc f8f7 153d
00000020: 1a93 8ebd 78ec 9c3c c05d 69bc e031 df3b
00000030: 90e1 143c 2402 8fbc 2cd7 39bc 008c fb38
00000040: 401a d83c 0400 2b3d d0b1 303c b046 dabb
00000050: 10ee 763d 0480 8c3c f051 e43c b08c 283d
00000060: 28b7 2c3c e01e 923d d800 17bc 8007 193a
00000070: 5949 21bd 6812 4e3d ca8b ccbc 407e 59bb
00000080: b809 cb3c 72a4 54bd a0da 9d3c 686f 2b3d
00000090: f4a0 79bc f664 16bd 428d 3abd b473 bf3c
000000a0: 1ab1 e5bc 311f 76bd eacb 49bd cc18 73bc
000000b0: 483f 9fbc ccf6 e2bc 6012 833c eca5 09bd
000000c0: 0849 76bc 8466 60bd 03d0 91bd a0f1 0abb
000000d0: dd2f 88bd 50c9 63bd d8cd e83c 8c27 fcbc
000000e0: 0cd2 fc3c a01f a9bb eca0 1e3d 62dc 12bd
000000f0: 7767 83bd 5800 8f3d deef 4a3d 148f 983c
00000100: 1c4a 753d b8e2 8e3c f15e 8fbd 40ad 203d
00000110: 9061 983b da78 38bd 7092 d03c b02c 133d
00000120: 38db 69bd 68bb 8ebd 9cab abbc 909e 88bb
00000130: d027 9b3b b49b 63bc 8ca0 3abd 2483 753d
00000140: 7f75 05bd 2ef7 8cbd a875 ea3c 5e00 853d
00000150: a61e 913d 0030 b43b a038 893c aac1 2ebd
00000160: 4cd9 8b3d 0c6d 7abc 66fb 4cbd 369d 843d
00000170: a457 0e3d 34c4 85bd 54b8 a8bc 0e61 6ebd
00000180: c409 f23c 5809 ca3c c84f 853d e070 cbbb
00000190: 142e 593d 9007 503d 32a5 febc 49b9 8bbd
000001a0: a527 1ebd 90a8 853d 3725 8fbd 80cb 39ba
000001b0: a80c 58bd c378 1ebd 2a72 0fbd b450 4dbd
000001c0: 1046 1b3c a0bc b53b 809a d9bb b485 27bd
000001d0: e2c2 0c3d d813 273c 2481 f4bc 1c15 fa3c
000001e0: fadf b1bc a4d5 fd3c 26db edbc c282 923d
000001f0: e027 94bb a444 65bc 5263 2fbd c8ac 19bc
00000200: 585b 673c 680d 8d3d 9938 15bd 805c 843c
00000210: 2c09 89bc 64cd 913d f060 e7bb bcc9 25bc
00000220: 1020 b23c 7681 3b3d 7cce bbbc 587e 45bc
00000230: 6d79 8ebd a239 8c3d d084 633d 5833 e3bc
00000240: 3661 4b3d 966f 2b3d fcf9 073d f0b4 d7bb
00000250: 6083 d83b 8000 12ba f06d 56bd a639 88bc
00000260: d4bf 4ebd acfc 803d 00cc 6e3c a2ce 433d
00000270: a027 05bb a44d ffbc 31fd 06bd 5ee4 883d
00000280: 6efe 193d 30e5 acbc bc76 2f3d b414 f4bc
00000290: 0e2d 8f3d 3f2c 22bd 0004 193b 2044 5cbb
000002a0: 5208 ffbc 94da 45bc 6ac6 4cbd fc62 203d
000002b0: 3441 5b3d e4c3 6dbd 60cb 543c e004 3d3b
000002c0: 0c24 113d 3cce 583d 963f 8f3d f09c 8fbb
000002d0: 00ec 403b 8473 433d 4c6e 67bd aca4 7e3d
000002e0: 488f 8a3d 0403 a13c 085c c73c 8059 26bc
000002f0: 6eb7 0d3d 4850 75bd 7021 92bd c45b e3bc
00000300: deef 49bd 00a1 01bc 4351 7ebd 5acd 82bd
00000310: ce7d c5bc f690 883d 68e7 29bc 642c 1d3d
00000320: fd3f 40bd 5aa3 adbc 6e3f bebc 34a8 85bd
00000330: 2cfb 7dbc 6068 1d3c 1034 8ebc a062 993b
00000340: 8f76 02bd a093 eabb a889 263d 8459 80bd
00000350: 289c 843d c429 7b3d 4641 453d 06ec 8c3d
00000360: 9076 b73b b3ac 7cbd 4d5d 50bd c9e8 6cbd
00000370: 50ea 613d 6005 15bd aa87 563d 105c 5cbd
00000380: f85f 4abd 48d3 13bc f407 293d b83b b5bc
00000390: 7adc 81bc 0c22 303d ed96 1dbd e066 ff3b
000003a0: 9036 8dbd c0b4 093b 88dc 8a3d 70bb 2abd
000003b0: 4e04 573d 8cc0 adbc e3ad 2bbd d4bc 6a3d
000003c0: 401d a1ba 30ab ae3b 3826 643d 2029 5e3c
000003d0: 20ed d43c ea58 b7bc 9e1a 933d c0a5 59bb
000003e0: b02a 813c c418 b93c b7a9 40bd 5dd1 02bd
000003f0: 4a47 3abd 108e 89bb accf 073d e05e 183c

model_1/conv2d_3/Conv2D f4 [32, 1, 1, 96]
0.11423661 -0.039218932 0.13286279 -0.12092841 -0.16151689 -0.16776617 -0.042565808 -0.0581695
0.1424513 0.21142255 -0.09648819 0.10789488 0.16672285 0.16542886 -0.13773766 0.16995032
-0.20996197 0.12822641 -0.09088597 0.097683534 -0.06711696 0.17470683 0.06251867 -0.11595304
-0.13699445 -0.0349921 -0.032196462 0.0069306493 0.066677466 -0.15991794 -0.13155332 -0.09778889
-0.12866266 0.1253577 -0.031095833 0.07671575 0.15802522 -0.20636365 0.20262174 0.1167693
-0.20673004 -0.028911367 0.04450433 -0.056171164 -0.040320113 0.024435937 0.07453008 0.12389381
-0.014322549 -0.10845015 -0.11913325 -0.049914256 0.20273437 -0.022433832 0.18920441 0.16562866
-0.12728432 -0.17556055 -0.069374874 0.11673243 0.017077059 -0.04964155 -0.11266563 -0.15783903
0.16245528 0.0896004 -0.17597097 0.06303425 -0.15488115 -0.1481368 0.029081807 0.14323138
0.06705247 0.046915844 -0.13399208 -0.1574856 0.033542678 0.05347015 -0.087359756 0.11721431
0.09421907 -0.08269231 -0.2117911 0.055955812 0.10264541 -0.18349797 -0.047151133 0.11228748
-0.030448064 -0.031333596 -0.083354115 0.0090483725 -0.14614694 0.18904276 -0.07483345 -0.0472776
0.0029805452 -0.14957961 -0.20535837 -0.19739117 0.10296284 0.048450395 0.02670908 -0.1006299
0.14693396 0.12597804 0.13351662 -0.036690265 -0.011664018 -0.032981485 0.10237886 -0.07400037
0.18045746 0.021545619 -0.16916779 0.11825599 -0.05633661 -0.08935478 0.18890075 -0.057427943
0.06102197 -0.17943576 -0.099522315 -0.0021598488 -0.094734795 -0.12651882 0.034166142 0.00069081783
-0.18655078 0.09443773 -0.10692104 -0.20734198 -0.008444995 -0.15764572 0.13703568 0.21504892
0.2002232 -0.025546253 -0.0005107671 0.07304625 -0.034451023 -0.15783377 -0.15208654 -0.12027181
0.0036309361 -0.14790013 -0.21361877 -0.1298486 -0.14423841 -0.20597759 0.20026393 -0.19609486
-0.09474589 -0.0025210232 -0.17358091 -0.059565946 0.15661593 -0.15308377 0.21293168 -0.15651909
0.08688353 0.028697863 0.18397205 -0.13463438 0.005436018 0.0682552 0.10573928 0.028953224
-0.13197759 0.09640463 0.11455561 -0.04450932 -0.101296775 0.14216022 -0.084531605 0.21486108
-0.21266134 0.12090434 -0.1531736 0.04832001 0.003984481 0.12876765 0.0459003 -0.20359346
0.06983869 -0.058395237 -0.0038713813 0.18513699 0.14246865 0.20854537 -0.20173961 -0.041445732
-0.08788864 -0.19762045 -0.027584702 0.17717303 0.10140683 -0.13902289 0.12998007 -0.12013508
-0.10091861 -0.17590666 -0.016040176 0.033194304 -0.11381911 0.18379648 -0.12526415 0.21196185
-0.1773873 -0.17856091 0.2111953 -0.123148136 -0.1345829 0.07258196 0.17851032 -0.14076059
0.10856657 0.10542996 0.20928071 -0.106186345 0.028131455 -0.10258085 -0.1839613 -0.112880826
-0.06081684 -0.1275881 -0.0902558 0.08355816 -0.0016578585 -0.17447908 0.12881432 -0.20034398
-0.19039093 -0.21521024 -0.1719562 -0.11322864 -0.09660929 -0.061320484 0.17413546 0.20640345
-0.0032085925 -0.17600267 -0.20534469 -0.010333374 -0.06657475 -0.18234774 0.10325788 -0.03882502
0.14971744 -0.11346877 0.17263459 0.007757738 0.18737303 0.12363432 0.17412777 0.056211933
00000000: e2f4 e93d 08a4 20bd 2f0d 083e 50a9 f7bd
00000010: af64 25be e5ca 2bbe 7c59 2ebd 2443 6ebd
00000020: c1de 113e 277f 583e 9a9b c5bd fef7 dc3d
00000030: 65b9 2a3e 2f66 293e 1a0b 0dbe 7507 2e3e
00000040: 4500 57be c94d 033e 6c22 babd 4e0e c83d
00000050: 9e74 89bd 59e6 323e ca09 803d ca78 edbd
00000060: 4648 0cbe e053 0fbd 70e0 03bd 801a e33b
00000070: 328e 883d 87c1 23be eab5 06be 8b45 c8bd
00000080: 25c0 03be c55d 003e b0bc febc 261d 9d3d
00000090: 5dd1 213e fe50 53be 137c 4f3e be24 ef3d
000000a0: 0ab1 53be 88d7 ecbc 2c4a 363d bc13 66bd
000000b0: b426 25bd e02d c83c 3aa3 983d 0abc fd3d
000000c0: 20a9 6abc 1d1b debd 22fc f3bd e472 4cbd
000000d0: 9999 4f3e 28c7 b7bc cdbe 413e 8f9a 293e
000000e0: d256 02be 25c6 33be 6a14 8ebd 6a11 ef3d
000000f0: 30e5 8b3c f054 4bbd 3dbd e6bd 8ea0 21be
00000100: ad5a 263e 6a80 b73d bc31 34be 1a18 813d
00000110: 2a99 1ebe 2cb1 17be f83c ee3c 3fab 123e
00000120: ce52 893d d42a 403d 3835 09be e843 21be
00000130: 0c64 093d 8403 5b3d ace9 b2bd 0e0e f03d
00000140: eef5 c03d 965a a9bd c4df 58be ec31 653d
00000150: c237 d23d e4e6 3bbe 8c21 41bd faf6 e53d
00000160: 386e f9bc a857 00bd 90b5 aabd a03f 143c
00000170: 8ba7 15be 6d94 413e 4842 99bd 28a6 41bd
00000180: 4055 433b 662b 19be 7749 52be e920 4abe
00000190: 2ede d23d ec73 463d 00cd da3c 0d17 cebd
000001a0: db75 163e 6300 013e 95b8 083e 8848 16bd
000001b0: 701a 3fbc 9817 07bd 02ac d13d 828d 97bd
000001c0: d7c9 383e 7080 b03c 523a 2dbe 3230 f23d
000001d0: 38c1 66bd a4ff b6bd 336f 413e 9039 6bbd
000001e0: 2cf2 793d 02be 37be 5bd2 cbbd 408c 0dbb
000001f0: 5104 c2bd 268e 01be ccf1 0b3d 0018 353a
00000200: 2b07 3fbe 9268 c13d 6bf9 dabd 7551 54be
00000210: e05c 0abc e16d 21be 1553 0c3e c935 5c3e
00000220: 4f07 4d3e 6046 d1bc 00e5 05ba 4699 953d
00000230: 841c 0dbd 2d9f 21be 93bc 1bbe 1151 f6bd
00000240: 00f5 6d3b 2273 17be e1be 5abe 08f7 04be
00000250: 3cb3 13be caeb 52be fd11 4d3e 17cd 48be
00000260: 220a c2bd c037 25bb 32bf 31be 6cfb 73bd
00000270: ed5f 203e fec1 1cbe c30a 5a3e 8a46 20be
00000280: feef b13d c817 eb3c 2b63 3c3e 98dd 09be
00000290: a020 b23b 62c9 8b3d d68d d83d 502f ed3c
000002a0: 2225 07be ca6f c53d 229c ea3d 684f 36bd
000002b0: af74 cfbd 7392 113e e81e adbd 8b04 5c3e
000002c0: e5c3 59be b29c f73d 8ad9 1cbe 34eb 453d
000002d0: 4090 823b abdb 033e f401 3c3d ce7a 50be
000002e0: 9607 8f3d d82f 6fbd 00b7 7dbb 8d94 3d3e
000002f0: 4de3 113e eb8c 553e d494 4ebe 00c3 29bd
00000300: f6fe b3bd 045d 4abe 50f9 e1bc d96c 353e
00000310: 62ae cf3d 045c 0ebe 7f19 053e 6109 f6bd
00000320: 6bae cebd e020 34be b066 83bc c0f6 073d
00000330: fe19 e9bd 2535 3c3e 3f45 00be 870c 593e
00000340: 04a5 35be acd8 36be 9543 583e 1735 fcbd
00000350: 1ad0 09be daa5 943d 69cb 363e 8b23 10be
00000360: 2658 de3d aaeb d73d af4d 563e 3a78 d9bd
00000370: f073 e63c e915 d2bd 5a60 3cbe 102e e7bd
00000380: 141b 79bd 74a6 02be 08d8 b8bd 8a20 ab3d
00000390: 804c d9ba a5aa 32be e7e7 033e f926 4dbe
000003a0: d7f5 42be 1360 5cbe 4915 30be 6be4 e7bd
000003b0: 17db c5bd 302b 7bbd 9150 323e 6d5b 533e
000003c0: 4047 52bb 0b3a 34be e145 52be 504d 29bc
000003d0: 5858 88bd 5eb9 3abe de78 d33d fc06 1fbd
000003e0: 874f 193e 5162 e8bd 1fc7 303e a034 fe3b
000003f0: b7de 3f3e fe33 fd3d 8d4e 323e 7c3e 663d
